{"format": "layers-model", "generatedBy": "keras v2.2.4-tf", "convertedBy": "TensorFlow.js Converter v1.7.4r1", "modelTopology": {"keras_version": "2.2.4-tf", "backend": "tensorflow", "model_config": {"class_name": "Model", "config": {"layers": [{"class_name": "InputLayer", "config": {"dtype": "float32", "batch_input_shape": [null, 12, 128, 256], "name": "input_imgs", "sparse": false}, "inbound_nodes": [], "name": "input_imgs"}, {"class_name": "Permute", "config": {"dtype": "float32", "batch_input_shape": [null, 12, 128, 256], "trainable": true, "name": "permute", "dims": [2, 3, 1]}, "inbound_nodes": [[["input_imgs", 0, 0, {}]]], "name": "permute"}, {"class_name": "Model", "config": {"layers": [{"class_name": "InputLayer", "inbound_nodes": [], "config": {"dtype": "float32", "batch_input_shape": [null, 128, 256, 12], "name": "input_1", "sparse": false}, "name": "input_1"}, {"class_name": "Conv2D", "inbound_nodes": [[["input_1", 0, 0, {}]]], "config": {"kernel_initializer": {"class_name": "VarianceScaling", "config": {"dtype": "float32", "distribution": "truncated_normal", "scale": 2.0, "seed": null, "mode": "fan_out"}}, "name": "stem_conv", "kernel_constraint": null, "bias_regularizer": null, "bias_constraint": null, "dtype": "float32", "activation": "linear", "trainable": true, "data_format": "channels_last", "padding": "same", "strides": [2, 2], "dilation_rate": [1, 1], "kernel_regularizer": null, "filters": 32, "bias_initializer": {"class_name": "Zeros", "config": {"dtype": "float32"}}, "use_bias": false, "activity_regularizer": null, "kernel_size": [3, 3]}, "name": "stem_conv"}, {"class_name": "BatchNormalization", "inbound_nodes": [[["stem_conv", 0, 0, {}]]], "config": {"gamma_initializer": {"class_name": "Ones", "config": {"dtype": "float32"}}, "moving_mean_initializer": {"class_name": "Zeros", "config": {"dtype": "float32"}}, "name": "stem_bn", "gamma_regularizer": null, "dtype": "float32", "trainable": true, "center": true, "moving_variance_initializer": {"class_name": "Ones", "config": {"dtype": "float32"}}, "beta_initializer": {"class_name": "Zeros", "config": {"dtype": "float32"}}, "scale": true, "epsilon": 0.001, "gamma_constraint": null, "beta_constraint": null, "beta_regularizer": null, "momentum": 0.99, "axis": [3]}, "name": "stem_bn"}, {"class_name": "Activation", "inbound_nodes": [[["stem_bn", 0, 0, {}]]], "config": {"dtype": "float32", "activation": "elu", "trainable": true, "name": "stem_activation"}, "name": "stem_activation"}, {"class_name": "DepthwiseConv2D", "inbound_nodes": [[["stem_activation", 0, 0, {}]]], "config": {"depth_multiplier": 1, "name": "block1a_dwconv", "bias_regularizer": null, "bias_constraint": null, "dtype": "float32", "activation": "linear", "trainable": true, "depthwise_constraint": null, "data_format": "channels_last", "padding": "same", "strides": [1, 1], "dilation_rate": [1, 1], "depthwise_initializer": {"class_name": "VarianceScaling", "config": {"dtype": "float32", "distribution": "truncated_normal", "scale": 2.0, "seed": null, "mode": "fan_out"}}, "bias_initializer": {"class_name": "Zeros", "config": {"dtype": "float32"}}, "depthwise_regularizer": null, "use_bias": false, "activity_regularizer": null, "kernel_size": [3, 3]}, "name": "block1a_dwconv"}, {"class_name": "BatchNormalization", "inbound_nodes": [[["block1a_dwconv", 0, 0, {}]]], "config": {"gamma_initializer": {"class_name": "Ones", "config": {"dtype": "float32"}}, "moving_mean_initializer": {"class_name": "Zeros", "config": {"dtype": "float32"}}, "name": "block1a_bn", "gamma_regularizer": null, "dtype": "float32", "trainable": true, "center": true, "moving_variance_initializer": {"class_name": "Ones", "config": {"dtype": "float32"}}, "beta_initializer": {"class_name": "Zeros", "config": {"dtype": "float32"}}, "scale": true, "epsilon": 0.001, "gamma_constraint": null, "beta_constraint": null, "beta_regularizer": null, "momentum": 0.99, "axis": [3]}, "name": "block1a_bn"}, {"class_name": "Activation", "inbound_nodes": [[["block1a_bn", 0, 0, {}]]], "config": {"dtype": "float32", "activation": "elu", "trainable": true, "name": "block1a_activation"}, "name": "block1a_activation"}, {"class_name": "Conv2D", "inbound_nodes": [[["block1a_activation", 0, 0, {}]]], "config": {"kernel_initializer": {"class_name": "VarianceScaling", "config": {"dtype": "float32", "distribution": "truncated_normal", "scale": 2.0, "seed": null, "mode": "fan_out"}}, "name": "block1a_project_conv", "kernel_constraint": null, "bias_regularizer": null, "bias_constraint": null, "dtype": "float32", "activation": "linear", "trainable": true, "data_format": "channels_last", "padding": "same", "strides": [1, 1], "dilation_rate": [1, 1], "kernel_regularizer": null, "filters": 16, "bias_initializer": {"class_name": "Zeros", "config": {"dtype": "float32"}}, "use_bias": false, "activity_regularizer": null, "kernel_size": [1, 1]}, "name": "block1a_project_conv"}, {"class_name": "BatchNormalization", "inbound_nodes": [[["block1a_project_conv", 0, 0, {}]]], "config": {"gamma_initializer": {"class_name": "Ones", "config": {"dtype": "float32"}}, "moving_mean_initializer": {"class_name": "Zeros", "config": {"dtype": "float32"}}, "name": "block1a_project_bn", "gamma_regularizer": null, "dtype": "float32", "trainable": true, "center": true, "moving_variance_initializer": {"class_name": "Ones", "config": {"dtype": "float32"}}, "beta_initializer": {"class_name": "Zeros", "config": {"dtype": "float32"}}, "scale": true, "epsilon": 0.001, "gamma_constraint": null, "beta_constraint": null, "beta_regularizer": null, "momentum": 0.99, "axis": [3]}, "name": "block1a_project_bn"}, {"class_name": "DepthwiseConv2D", "inbound_nodes": [[["block1a_project_bn", 0, 0, {}]]], "config": {"depth_multiplier": 1, "name": "block1b_dwconv", "bias_regularizer": null, "bias_constraint": null, "dtype": "float32", "activation": "linear", "trainable": true, "depthwise_constraint": null, "data_format": "channels_last", "padding": "same", "strides": [1, 1], "dilation_rate": [1, 1], "depthwise_initializer": {"class_name": "VarianceScaling", "config": {"dtype": "float32", "distribution": "truncated_normal", "scale": 2.0, "seed": null, "mode": "fan_out"}}, "bias_initializer": {"class_name": "Zeros", "config": {"dtype": "float32"}}, "depthwise_regularizer": null, "use_bias": false, "activity_regularizer": null, "kernel_size": [3, 3]}, "name": "block1b_dwconv"}, {"class_name": "BatchNormalization", "inbound_nodes": [[["block1b_dwconv", 0, 0, {}]]], "config": {"gamma_initializer": {"class_name": "Ones", "config": {"dtype": "float32"}}, "moving_mean_initializer": {"class_name": "Zeros", "config": {"dtype": "float32"}}, "name": "block1b_bn", "gamma_regularizer": null, "dtype": "float32", "trainable": true, "center": true, "moving_variance_initializer": {"class_name": "Ones", "config": {"dtype": "float32"}}, "beta_initializer": {"class_name": "Zeros", "config": {"dtype": "float32"}}, "scale": true, "epsilon": 0.001, "gamma_constraint": null, "beta_constraint": null, "beta_regularizer": null, "momentum": 0.99, "axis": [3]}, "name": "block1b_bn"}, {"class_name": "Activation", "inbound_nodes": [[["block1b_bn", 0, 0, {}]]], "config": {"dtype": "float32", "activation": "elu", "trainable": true, "name": "block1b_activation"}, "name": "block1b_activation"}, {"class_name": "Conv2D", "inbound_nodes": [[["block1b_activation", 0, 0, {}]]], "config": {"kernel_initializer": {"class_name": "VarianceScaling", "config": {"dtype": "float32", "distribution": "truncated_normal", "scale": 2.0, "seed": null, "mode": "fan_out"}}, "name": "block1b_project_conv", "kernel_constraint": null, "bias_regularizer": null, "bias_constraint": null, "dtype": "float32", "activation": "linear", "trainable": true, "data_format": "channels_last", "padding": "same", "strides": [1, 1], "dilation_rate": [1, 1], "kernel_regularizer": null, "filters": 16, "bias_initializer": {"class_name": "Zeros", "config": {"dtype": "float32"}}, "use_bias": false, "activity_regularizer": null, "kernel_size": [1, 1]}, "name": "block1b_project_conv"}, {"class_name": "BatchNormalization", "inbound_nodes": [[["block1b_project_conv", 0, 0, {}]]], "config": {"gamma_initializer": {"class_name": "Ones", "config": {"dtype": "float32"}}, "moving_mean_initializer": {"class_name": "Zeros", "config": {"dtype": "float32"}}, "name": "block1b_project_bn", "gamma_regularizer": null, "dtype": "float32", "trainable": true, "center": true, "moving_variance_initializer": {"class_name": "Ones", "config": {"dtype": "float32"}}, "beta_initializer": {"class_name": "Zeros", "config": {"dtype": "float32"}}, "scale": true, "epsilon": 0.001, "gamma_constraint": null, "beta_constraint": null, "beta_regularizer": null, "momentum": 0.99, "axis": [3]}, "name": "block1b_project_bn"}, {"class_name": "Add", "inbound_nodes": [[["block1b_project_bn", 0, 0, {}], ["block1a_project_bn", 0, 0, {}]]], "config": {"dtype": "float32", "trainable": true, "name": "block1b_add"}, "name": "block1b_add"}, {"class_name": "Conv2D", "inbound_nodes": [[["block1b_add", 0, 0, {}]]], "config": {"kernel_initializer": {"class_name": "VarianceScaling", "config": {"dtype": "float32", "distribution": "truncated_normal", "scale": 2.0, "seed": null, "mode": "fan_out"}}, "name": "block2a_expand_conv", "kernel_constraint": null, "bias_regularizer": null, "bias_constraint": null, "dtype": "float32", "activation": "linear", "trainable": true, "data_format": "channels_last", "padding": "same", "strides": [1, 1], "dilation_rate": [1, 1], "kernel_regularizer": null, "filters": 96, "bias_initializer": {"class_name": "Zeros", "config": {"dtype": "float32"}}, "use_bias": false, "activity_regularizer": null, "kernel_size": [1, 1]}, "name": "block2a_expand_conv"}, {"class_name": "BatchNormalization", "inbound_nodes": [[["block2a_expand_conv", 0, 0, {}]]], "config": {"gamma_initializer": {"class_name": "Ones", "config": {"dtype": "float32"}}, "moving_mean_initializer": {"class_name": "Zeros", "config": {"dtype": "float32"}}, "name": "block2a_expand_bn", "gamma_regularizer": null, "dtype": "float32", "trainable": true, "center": true, "moving_variance_initializer": {"class_name": "Ones", "config": {"dtype": "float32"}}, "beta_initializer": {"class_name": "Zeros", "config": {"dtype": "float32"}}, "scale": true, "epsilon": 0.001, "gamma_constraint": null, "beta_constraint": null, "beta_regularizer": null, "momentum": 0.99, "axis": [3]}, "name": "block2a_expand_bn"}, {"class_name": "Activation", "inbound_nodes": [[["block2a_expand_bn", 0, 0, {}]]], "config": {"dtype": "float32", "activation": "elu", "trainable": true, "name": "block2a_expand_activation"}, "name": "block2a_expand_activation"}, {"class_name": "DepthwiseConv2D", "inbound_nodes": [[["block2a_expand_activation", 0, 0, {}]]], "config": {"depth_multiplier": 1, "name": "block2a_dwconv", "bias_regularizer": null, "bias_constraint": null, "dtype": "float32", "activation": "linear", "trainable": true, "depthwise_constraint": null, "data_format": "channels_last", "padding": "same", "strides": [2, 2], "dilation_rate": [1, 1], "depthwise_initializer": {"class_name": "VarianceScaling", "config": {"dtype": "float32", "distribution": "truncated_normal", "scale": 2.0, "seed": null, "mode": "fan_out"}}, "bias_initializer": {"class_name": "Zeros", "config": {"dtype": "float32"}}, "depthwise_regularizer": null, "use_bias": false, "activity_regularizer": null, "kernel_size": [3, 3]}, "name": "block2a_dwconv"}, {"class_name": "BatchNormalization", "inbound_nodes": [[["block2a_dwconv", 0, 0, {}]]], "config": {"gamma_initializer": {"class_name": "Ones", "config": {"dtype": "float32"}}, "moving_mean_initializer": {"class_name": "Zeros", "config": {"dtype": "float32"}}, "name": "block2a_bn", "gamma_regularizer": null, "dtype": "float32", "trainable": true, "center": true, "moving_variance_initializer": {"class_name": "Ones", "config": {"dtype": "float32"}}, "beta_initializer": {"class_name": "Zeros", "config": {"dtype": "float32"}}, "scale": true, "epsilon": 0.001, "gamma_constraint": null, "beta_constraint": null, "beta_regularizer": null, "momentum": 0.99, "axis": [3]}, "name": "block2a_bn"}, {"class_name": "Activation", "inbound_nodes": [[["block2a_bn", 0, 0, {}]]], "config": {"dtype": "float32", "activation": "elu", "trainable": true, "name": "block2a_activation"}, "name": "block2a_activation"}, {"class_name": "Conv2D", "inbound_nodes": [[["block2a_activation", 0, 0, {}]]], "config": {"kernel_initializer": {"class_name": "VarianceScaling", "config": {"dtype": "float32", "distribution": "truncated_normal", "scale": 2.0, "seed": null, "mode": "fan_out"}}, "name": "block2a_project_conv", "kernel_constraint": null, "bias_regularizer": null, "bias_constraint": null, "dtype": "float32", "activation": "linear", "trainable": true, "data_format": "channels_last", "padding": "same", "strides": [1, 1], "dilation_rate": [1, 1], "kernel_regularizer": null, "filters": 24, "bias_initializer": {"class_name": "Zeros", "config": {"dtype": "float32"}}, "use_bias": false, "activity_regularizer": null, "kernel_size": [1, 1]}, "name": "block2a_project_conv"}, {"class_name": "BatchNormalization", "inbound_nodes": [[["block2a_project_conv", 0, 0, {}]]], "config": {"gamma_initializer": {"class_name": "Ones", "config": {"dtype": "float32"}}, "moving_mean_initializer": {"class_name": "Zeros", "config": {"dtype": "float32"}}, "name": "block2a_project_bn", "gamma_regularizer": null, "dtype": "float32", "trainable": true, "center": true, "moving_variance_initializer": {"class_name": "Ones", "config": {"dtype": "float32"}}, "beta_initializer": {"class_name": "Zeros", "config": {"dtype": "float32"}}, "scale": true, "epsilon": 0.001, "gamma_constraint": null, "beta_constraint": null, "beta_regularizer": null, "momentum": 0.99, "axis": [3]}, "name": "block2a_project_bn"}, {"class_name": "Conv2D", "inbound_nodes": [[["block2a_project_bn", 0, 0, {}]]], "config": {"kernel_initializer": {"class_name": "VarianceScaling", "config": {"dtype": "float32", "distribution": "truncated_normal", "scale": 2.0, "seed": null, "mode": "fan_out"}}, "name": "block2b_expand_conv", "kernel_constraint": null, "bias_regularizer": null, "bias_constraint": null, "dtype": "float32", "activation": "linear", "trainable": true, "data_format": "channels_last", "padding": "same", "strides": [1, 1], "dilation_rate": [1, 1], "kernel_regularizer": null, "filters": 144, "bias_initializer": {"class_name": "Zeros", "config": {"dtype": "float32"}}, "use_bias": false, "activity_regularizer": null, "kernel_size": [1, 1]}, "name": "block2b_expand_conv"}, {"class_name": "BatchNormalization", "inbound_nodes": [[["block2b_expand_conv", 0, 0, {}]]], "config": {"gamma_initializer": {"class_name": "Ones", "config": {"dtype": "float32"}}, "moving_mean_initializer": {"class_name": "Zeros", "config": {"dtype": "float32"}}, "name": "block2b_expand_bn", "gamma_regularizer": null, "dtype": "float32", "trainable": true, "center": true, "moving_variance_initializer": {"class_name": "Ones", "config": {"dtype": "float32"}}, "beta_initializer": {"class_name": "Zeros", "config": {"dtype": "float32"}}, "scale": true, "epsilon": 0.001, "gamma_constraint": null, "beta_constraint": null, "beta_regularizer": null, "momentum": 0.99, "axis": [3]}, "name": "block2b_expand_bn"}, {"class_name": "Activation", "inbound_nodes": [[["block2b_expand_bn", 0, 0, {}]]], "config": {"dtype": "float32", "activation": "elu", "trainable": true, "name": "block2b_expand_activation"}, "name": "block2b_expand_activation"}, {"class_name": "DepthwiseConv2D", "inbound_nodes": [[["block2b_expand_activation", 0, 0, {}]]], "config": {"depth_multiplier": 1, "name": "block2b_dwconv", "bias_regularizer": null, "bias_constraint": null, "dtype": "float32", "activation": "linear", "trainable": true, "depthwise_constraint": null, "data_format": "channels_last", "padding": "same", "strides": [1, 1], "dilation_rate": [1, 1], "depthwise_initializer": {"class_name": "VarianceScaling", "config": {"dtype": "float32", "distribution": "truncated_normal", "scale": 2.0, "seed": null, "mode": "fan_out"}}, "bias_initializer": {"class_name": "Zeros", "config": {"dtype": "float32"}}, "depthwise_regularizer": null, "use_bias": false, "activity_regularizer": null, "kernel_size": [3, 3]}, "name": "block2b_dwconv"}, {"class_name": "BatchNormalization", "inbound_nodes": [[["block2b_dwconv", 0, 0, {}]]], "config": {"gamma_initializer": {"class_name": "Ones", "config": {"dtype": "float32"}}, "moving_mean_initializer": {"class_name": "Zeros", "config": {"dtype": "float32"}}, "name": "block2b_bn", "gamma_regularizer": null, "dtype": "float32", "trainable": true, "center": true, "moving_variance_initializer": {"class_name": "Ones", "config": {"dtype": "float32"}}, "beta_initializer": {"class_name": "Zeros", "config": {"dtype": "float32"}}, "scale": true, "epsilon": 0.001, "gamma_constraint": null, "beta_constraint": null, "beta_regularizer": null, "momentum": 0.99, "axis": [3]}, "name": "block2b_bn"}, {"class_name": "Activation", "inbound_nodes": [[["block2b_bn", 0, 0, {}]]], "config": {"dtype": "float32", "activation": "elu", "trainable": true, "name": "block2b_activation"}, "name": "block2b_activation"}, {"class_name": "Conv2D", "inbound_nodes": [[["block2b_activation", 0, 0, {}]]], "config": {"kernel_initializer": {"class_name": "VarianceScaling", "config": {"dtype": "float32", "distribution": "truncated_normal", "scale": 2.0, "seed": null, "mode": "fan_out"}}, "name": "block2b_project_conv", "kernel_constraint": null, "bias_regularizer": null, "bias_constraint": null, "dtype": "float32", "activation": "linear", "trainable": true, "data_format": "channels_last", "padding": "same", "strides": [1, 1], "dilation_rate": [1, 1], "kernel_regularizer": null, "filters": 24, "bias_initializer": {"class_name": "Zeros", "config": {"dtype": "float32"}}, "use_bias": false, "activity_regularizer": null, "kernel_size": [1, 1]}, "name": "block2b_project_conv"}, {"class_name": "BatchNormalization", "inbound_nodes": [[["block2b_project_conv", 0, 0, {}]]], "config": {"gamma_initializer": {"class_name": "Ones", "config": {"dtype": "float32"}}, "moving_mean_initializer": {"class_name": "Zeros", "config": {"dtype": "float32"}}, "name": "block2b_project_bn", "gamma_regularizer": null, "dtype": "float32", "trainable": true, "center": true, "moving_variance_initializer": {"class_name": "Ones", "config": {"dtype": "float32"}}, "beta_initializer": {"class_name": "Zeros", "config": {"dtype": "float32"}}, "scale": true, "epsilon": 0.001, "gamma_constraint": null, "beta_constraint": null, "beta_regularizer": null, "momentum": 0.99, "axis": [3]}, "name": "block2b_project_bn"}, {"class_name": "Add", "inbound_nodes": [[["block2b_project_bn", 0, 0, {}], ["block2a_project_bn", 0, 0, {}]]], "config": {"dtype": "float32", "trainable": true, "name": "block2b_add"}, "name": "block2b_add"}, {"class_name": "Conv2D", "inbound_nodes": [[["block2b_add", 0, 0, {}]]], "config": {"kernel_initializer": {"class_name": "VarianceScaling", "config": {"dtype": "float32", "distribution": "truncated_normal", "scale": 2.0, "seed": null, "mode": "fan_out"}}, "name": "block2c_expand_conv", "kernel_constraint": null, "bias_regularizer": null, "bias_constraint": null, "dtype": "float32", "activation": "linear", "trainable": true, "data_format": "channels_last", "padding": "same", "strides": [1, 1], "dilation_rate": [1, 1], "kernel_regularizer": null, "filters": 144, "bias_initializer": {"class_name": "Zeros", "config": {"dtype": "float32"}}, "use_bias": false, "activity_regularizer": null, "kernel_size": [1, 1]}, "name": "block2c_expand_conv"}, {"class_name": "BatchNormalization", "inbound_nodes": [[["block2c_expand_conv", 0, 0, {}]]], "config": {"gamma_initializer": {"class_name": "Ones", "config": {"dtype": "float32"}}, "moving_mean_initializer": {"class_name": "Zeros", "config": {"dtype": "float32"}}, "name": "block2c_expand_bn", "gamma_regularizer": null, "dtype": "float32", "trainable": true, "center": true, "moving_variance_initializer": {"class_name": "Ones", "config": {"dtype": "float32"}}, "beta_initializer": {"class_name": "Zeros", "config": {"dtype": "float32"}}, "scale": true, "epsilon": 0.001, "gamma_constraint": null, "beta_constraint": null, "beta_regularizer": null, "momentum": 0.99, "axis": [3]}, "name": "block2c_expand_bn"}, {"class_name": "Activation", "inbound_nodes": [[["block2c_expand_bn", 0, 0, {}]]], "config": {"dtype": "float32", "activation": "elu", "trainable": true, "name": "block2c_expand_activation"}, "name": "block2c_expand_activation"}, {"class_name": "DepthwiseConv2D", "inbound_nodes": [[["block2c_expand_activation", 0, 0, {}]]], "config": {"depth_multiplier": 1, "name": "block2c_dwconv", "bias_regularizer": null, "bias_constraint": null, "dtype": "float32", "activation": "linear", "trainable": true, "depthwise_constraint": null, "data_format": "channels_last", "padding": "same", "strides": [1, 1], "dilation_rate": [1, 1], "depthwise_initializer": {"class_name": "VarianceScaling", "config": {"dtype": "float32", "distribution": "truncated_normal", "scale": 2.0, "seed": null, "mode": "fan_out"}}, "bias_initializer": {"class_name": "Zeros", "config": {"dtype": "float32"}}, "depthwise_regularizer": null, "use_bias": false, "activity_regularizer": null, "kernel_size": [3, 3]}, "name": "block2c_dwconv"}, {"class_name": "BatchNormalization", "inbound_nodes": [[["block2c_dwconv", 0, 0, {}]]], "config": {"gamma_initializer": {"class_name": "Ones", "config": {"dtype": "float32"}}, "moving_mean_initializer": {"class_name": "Zeros", "config": {"dtype": "float32"}}, "name": "block2c_bn", "gamma_regularizer": null, "dtype": "float32", "trainable": true, "center": true, "moving_variance_initializer": {"class_name": "Ones", "config": {"dtype": "float32"}}, "beta_initializer": {"class_name": "Zeros", "config": {"dtype": "float32"}}, "scale": true, "epsilon": 0.001, "gamma_constraint": null, "beta_constraint": null, "beta_regularizer": null, "momentum": 0.99, "axis": [3]}, "name": "block2c_bn"}, {"class_name": "Activation", "inbound_nodes": [[["block2c_bn", 0, 0, {}]]], "config": {"dtype": "float32", "activation": "elu", "trainable": true, "name": "block2c_activation"}, "name": "block2c_activation"}, {"class_name": "Conv2D", "inbound_nodes": [[["block2c_activation", 0, 0, {}]]], "config": {"kernel_initializer": {"class_name": "VarianceScaling", "config": {"dtype": "float32", "distribution": "truncated_normal", "scale": 2.0, "seed": null, "mode": "fan_out"}}, "name": "block2c_project_conv", "kernel_constraint": null, "bias_regularizer": null, "bias_constraint": null, "dtype": "float32", "activation": "linear", "trainable": true, "data_format": "channels_last", "padding": "same", "strides": [1, 1], "dilation_rate": [1, 1], "kernel_regularizer": null, "filters": 24, "bias_initializer": {"class_name": "Zeros", "config": {"dtype": "float32"}}, "use_bias": false, "activity_regularizer": null, "kernel_size": [1, 1]}, "name": "block2c_project_conv"}, {"class_name": "BatchNormalization", "inbound_nodes": [[["block2c_project_conv", 0, 0, {}]]], "config": {"gamma_initializer": {"class_name": "Ones", "config": {"dtype": "float32"}}, "moving_mean_initializer": {"class_name": "Zeros", "config": {"dtype": "float32"}}, "name": "block2c_project_bn", "gamma_regularizer": null, "dtype": "float32", "trainable": true, "center": true, "moving_variance_initializer": {"class_name": "Ones", "config": {"dtype": "float32"}}, "beta_initializer": {"class_name": "Zeros", "config": {"dtype": "float32"}}, "scale": true, "epsilon": 0.001, "gamma_constraint": null, "beta_constraint": null, "beta_regularizer": null, "momentum": 0.99, "axis": [3]}, "name": "block2c_project_bn"}, {"class_name": "Add", "inbound_nodes": [[["block2c_project_bn", 0, 0, {}], ["block2b_add", 0, 0, {}]]], "config": {"dtype": "float32", "trainable": true, "name": "block2c_add"}, "name": "block2c_add"}, {"class_name": "Conv2D", "inbound_nodes": [[["block2c_add", 0, 0, {}]]], "config": {"kernel_initializer": {"class_name": "VarianceScaling", "config": {"dtype": "float32", "distribution": "truncated_normal", "scale": 2.0, "seed": null, "mode": "fan_out"}}, "name": "block3a_expand_conv", "kernel_constraint": null, "bias_regularizer": null, "bias_constraint": null, "dtype": "float32", "activation": "linear", "trainable": true, "data_format": "channels_last", "padding": "same", "strides": [1, 1], "dilation_rate": [1, 1], "kernel_regularizer": null, "filters": 144, "bias_initializer": {"class_name": "Zeros", "config": {"dtype": "float32"}}, "use_bias": false, "activity_regularizer": null, "kernel_size": [1, 1]}, "name": "block3a_expand_conv"}, {"class_name": "BatchNormalization", "inbound_nodes": [[["block3a_expand_conv", 0, 0, {}]]], "config": {"gamma_initializer": {"class_name": "Ones", "config": {"dtype": "float32"}}, "moving_mean_initializer": {"class_name": "Zeros", "config": {"dtype": "float32"}}, "name": "block3a_expand_bn", "gamma_regularizer": null, "dtype": "float32", "trainable": true, "center": true, "moving_variance_initializer": {"class_name": "Ones", "config": {"dtype": "float32"}}, "beta_initializer": {"class_name": "Zeros", "config": {"dtype": "float32"}}, "scale": true, "epsilon": 0.001, "gamma_constraint": null, "beta_constraint": null, "beta_regularizer": null, "momentum": 0.99, "axis": [3]}, "name": "block3a_expand_bn"}, {"class_name": "Activation", "inbound_nodes": [[["block3a_expand_bn", 0, 0, {}]]], "config": {"dtype": "float32", "activation": "elu", "trainable": true, "name": "block3a_expand_activation"}, "name": "block3a_expand_activation"}, {"class_name": "DepthwiseConv2D", "inbound_nodes": [[["block3a_expand_activation", 0, 0, {}]]], "config": {"depth_multiplier": 1, "name": "block3a_dwconv", "bias_regularizer": null, "bias_constraint": null, "dtype": "float32", "activation": "linear", "trainable": true, "depthwise_constraint": null, "data_format": "channels_last", "padding": "same", "strides": [2, 2], "dilation_rate": [1, 1], "depthwise_initializer": {"class_name": "VarianceScaling", "config": {"dtype": "float32", "distribution": "truncated_normal", "scale": 2.0, "seed": null, "mode": "fan_out"}}, "bias_initializer": {"class_name": "Zeros", "config": {"dtype": "float32"}}, "depthwise_regularizer": null, "use_bias": false, "activity_regularizer": null, "kernel_size": [5, 5]}, "name": "block3a_dwconv"}, {"class_name": "BatchNormalization", "inbound_nodes": [[["block3a_dwconv", 0, 0, {}]]], "config": {"gamma_initializer": {"class_name": "Ones", "config": {"dtype": "float32"}}, "moving_mean_initializer": {"class_name": "Zeros", "config": {"dtype": "float32"}}, "name": "block3a_bn", "gamma_regularizer": null, "dtype": "float32", "trainable": true, "center": true, "moving_variance_initializer": {"class_name": "Ones", "config": {"dtype": "float32"}}, "beta_initializer": {"class_name": "Zeros", "config": {"dtype": "float32"}}, "scale": true, "epsilon": 0.001, "gamma_constraint": null, "beta_constraint": null, "beta_regularizer": null, "momentum": 0.99, "axis": [3]}, "name": "block3a_bn"}, {"class_name": "Activation", "inbound_nodes": [[["block3a_bn", 0, 0, {}]]], "config": {"dtype": "float32", "activation": "elu", "trainable": true, "name": "block3a_activation"}, "name": "block3a_activation"}, {"class_name": "Conv2D", "inbound_nodes": [[["block3a_activation", 0, 0, {}]]], "config": {"kernel_initializer": {"class_name": "VarianceScaling", "config": {"dtype": "float32", "distribution": "truncated_normal", "scale": 2.0, "seed": null, "mode": "fan_out"}}, "name": "block3a_project_conv", "kernel_constraint": null, "bias_regularizer": null, "bias_constraint": null, "dtype": "float32", "activation": "linear", "trainable": true, "data_format": "channels_last", "padding": "same", "strides": [1, 1], "dilation_rate": [1, 1], "kernel_regularizer": null, "filters": 48, "bias_initializer": {"class_name": "Zeros", "config": {"dtype": "float32"}}, "use_bias": false, "activity_regularizer": null, "kernel_size": [1, 1]}, "name": "block3a_project_conv"}, {"class_name": "BatchNormalization", "inbound_nodes": [[["block3a_project_conv", 0, 0, {}]]], "config": {"gamma_initializer": {"class_name": "Ones", "config": {"dtype": "float32"}}, "moving_mean_initializer": {"class_name": "Zeros", "config": {"dtype": "float32"}}, "name": "block3a_project_bn", "gamma_regularizer": null, "dtype": "float32", "trainable": true, "center": true, "moving_variance_initializer": {"class_name": "Ones", "config": {"dtype": "float32"}}, "beta_initializer": {"class_name": "Zeros", "config": {"dtype": "float32"}}, "scale": true, "epsilon": 0.001, "gamma_constraint": null, "beta_constraint": null, "beta_regularizer": null, "momentum": 0.99, "axis": [3]}, "name": "block3a_project_bn"}, {"class_name": "Conv2D", "inbound_nodes": [[["block3a_project_bn", 0, 0, {}]]], "config": {"kernel_initializer": {"class_name": "VarianceScaling", "config": {"dtype": "float32", "distribution": "truncated_normal", "scale": 2.0, "seed": null, "mode": "fan_out"}}, "name": "block3b_expand_conv", "kernel_constraint": null, "bias_regularizer": null, "bias_constraint": null, "dtype": "float32", "activation": "linear", "trainable": true, "data_format": "channels_last", "padding": "same", "strides": [1, 1], "dilation_rate": [1, 1], "kernel_regularizer": null, "filters": 288, "bias_initializer": {"class_name": "Zeros", "config": {"dtype": "float32"}}, "use_bias": false, "activity_regularizer": null, "kernel_size": [1, 1]}, "name": "block3b_expand_conv"}, {"class_name": "BatchNormalization", "inbound_nodes": [[["block3b_expand_conv", 0, 0, {}]]], "config": {"gamma_initializer": {"class_name": "Ones", "config": {"dtype": "float32"}}, "moving_mean_initializer": {"class_name": "Zeros", "config": {"dtype": "float32"}}, "name": "block3b_expand_bn", "gamma_regularizer": null, "dtype": "float32", "trainable": true, "center": true, "moving_variance_initializer": {"class_name": "Ones", "config": {"dtype": "float32"}}, "beta_initializer": {"class_name": "Zeros", "config": {"dtype": "float32"}}, "scale": true, "epsilon": 0.001, "gamma_constraint": null, "beta_constraint": null, "beta_regularizer": null, "momentum": 0.99, "axis": [3]}, "name": "block3b_expand_bn"}, {"class_name": "Activation", "inbound_nodes": [[["block3b_expand_bn", 0, 0, {}]]], "config": {"dtype": "float32", "activation": "elu", "trainable": true, "name": "block3b_expand_activation"}, "name": "block3b_expand_activation"}, {"class_name": "DepthwiseConv2D", "inbound_nodes": [[["block3b_expand_activation", 0, 0, {}]]], "config": {"depth_multiplier": 1, "name": "block3b_dwconv", "bias_regularizer": null, "bias_constraint": null, "dtype": "float32", "activation": "linear", "trainable": true, "depthwise_constraint": null, "data_format": "channels_last", "padding": "same", "strides": [1, 1], "dilation_rate": [1, 1], "depthwise_initializer": {"class_name": "VarianceScaling", "config": {"dtype": "float32", "distribution": "truncated_normal", "scale": 2.0, "seed": null, "mode": "fan_out"}}, "bias_initializer": {"class_name": "Zeros", "config": {"dtype": "float32"}}, "depthwise_regularizer": null, "use_bias": false, "activity_regularizer": null, "kernel_size": [5, 5]}, "name": "block3b_dwconv"}, {"class_name": "BatchNormalization", "inbound_nodes": [[["block3b_dwconv", 0, 0, {}]]], "config": {"gamma_initializer": {"class_name": "Ones", "config": {"dtype": "float32"}}, "moving_mean_initializer": {"class_name": "Zeros", "config": {"dtype": "float32"}}, "name": "block3b_bn", "gamma_regularizer": null, "dtype": "float32", "trainable": true, "center": true, "moving_variance_initializer": {"class_name": "Ones", "config": {"dtype": "float32"}}, "beta_initializer": {"class_name": "Zeros", "config": {"dtype": "float32"}}, "scale": true, "epsilon": 0.001, "gamma_constraint": null, "beta_constraint": null, "beta_regularizer": null, "momentum": 0.99, "axis": [3]}, "name": "block3b_bn"}, {"class_name": "Activation", "inbound_nodes": [[["block3b_bn", 0, 0, {}]]], "config": {"dtype": "float32", "activation": "elu", "trainable": true, "name": "block3b_activation"}, "name": "block3b_activation"}, {"class_name": "Conv2D", "inbound_nodes": [[["block3b_activation", 0, 0, {}]]], "config": {"kernel_initializer": {"class_name": "VarianceScaling", "config": {"dtype": "float32", "distribution": "truncated_normal", "scale": 2.0, "seed": null, "mode": "fan_out"}}, "name": "block3b_project_conv", "kernel_constraint": null, "bias_regularizer": null, "bias_constraint": null, "dtype": "float32", "activation": "linear", "trainable": true, "data_format": "channels_last", "padding": "same", "strides": [1, 1], "dilation_rate": [1, 1], "kernel_regularizer": null, "filters": 48, "bias_initializer": {"class_name": "Zeros", "config": {"dtype": "float32"}}, "use_bias": false, "activity_regularizer": null, "kernel_size": [1, 1]}, "name": "block3b_project_conv"}, {"class_name": "BatchNormalization", "inbound_nodes": [[["block3b_project_conv", 0, 0, {}]]], "config": {"gamma_initializer": {"class_name": "Ones", "config": {"dtype": "float32"}}, "moving_mean_initializer": {"class_name": "Zeros", "config": {"dtype": "float32"}}, "name": "block3b_project_bn", "gamma_regularizer": null, "dtype": "float32", "trainable": true, "center": true, "moving_variance_initializer": {"class_name": "Ones", "config": {"dtype": "float32"}}, "beta_initializer": {"class_name": "Zeros", "config": {"dtype": "float32"}}, "scale": true, "epsilon": 0.001, "gamma_constraint": null, "beta_constraint": null, "beta_regularizer": null, "momentum": 0.99, "axis": [3]}, "name": "block3b_project_bn"}, {"class_name": "Add", "inbound_nodes": [[["block3b_project_bn", 0, 0, {}], ["block3a_project_bn", 0, 0, {}]]], "config": {"dtype": "float32", "trainable": true, "name": "block3b_add"}, "name": "block3b_add"}, {"class_name": "Conv2D", "inbound_nodes": [[["block3b_add", 0, 0, {}]]], "config": {"kernel_initializer": {"class_name": "VarianceScaling", "config": {"dtype": "float32", "distribution": "truncated_normal", "scale": 2.0, "seed": null, "mode": "fan_out"}}, "name": "block3c_expand_conv", "kernel_constraint": null, "bias_regularizer": null, "bias_constraint": null, "dtype": "float32", "activation": "linear", "trainable": true, "data_format": "channels_last", "padding": "same", "strides": [1, 1], "dilation_rate": [1, 1], "kernel_regularizer": null, "filters": 288, "bias_initializer": {"class_name": "Zeros", "config": {"dtype": "float32"}}, "use_bias": false, "activity_regularizer": null, "kernel_size": [1, 1]}, "name": "block3c_expand_conv"}, {"class_name": "BatchNormalization", "inbound_nodes": [[["block3c_expand_conv", 0, 0, {}]]], "config": {"gamma_initializer": {"class_name": "Ones", "config": {"dtype": "float32"}}, "moving_mean_initializer": {"class_name": "Zeros", "config": {"dtype": "float32"}}, "name": "block3c_expand_bn", "gamma_regularizer": null, "dtype": "float32", "trainable": true, "center": true, "moving_variance_initializer": {"class_name": "Ones", "config": {"dtype": "float32"}}, "beta_initializer": {"class_name": "Zeros", "config": {"dtype": "float32"}}, "scale": true, "epsilon": 0.001, "gamma_constraint": null, "beta_constraint": null, "beta_regularizer": null, "momentum": 0.99, "axis": [3]}, "name": "block3c_expand_bn"}, {"class_name": "Activation", "inbound_nodes": [[["block3c_expand_bn", 0, 0, {}]]], "config": {"dtype": "float32", "activation": "elu", "trainable": true, "name": "block3c_expand_activation"}, "name": "block3c_expand_activation"}, {"class_name": "DepthwiseConv2D", "inbound_nodes": [[["block3c_expand_activation", 0, 0, {}]]], "config": {"depth_multiplier": 1, "name": "block3c_dwconv", "bias_regularizer": null, "bias_constraint": null, "dtype": "float32", "activation": "linear", "trainable": true, "depthwise_constraint": null, "data_format": "channels_last", "padding": "same", "strides": [1, 1], "dilation_rate": [1, 1], "depthwise_initializer": {"class_name": "VarianceScaling", "config": {"dtype": "float32", "distribution": "truncated_normal", "scale": 2.0, "seed": null, "mode": "fan_out"}}, "bias_initializer": {"class_name": "Zeros", "config": {"dtype": "float32"}}, "depthwise_regularizer": null, "use_bias": false, "activity_regularizer": null, "kernel_size": [5, 5]}, "name": "block3c_dwconv"}, {"class_name": "BatchNormalization", "inbound_nodes": [[["block3c_dwconv", 0, 0, {}]]], "config": {"gamma_initializer": {"class_name": "Ones", "config": {"dtype": "float32"}}, "moving_mean_initializer": {"class_name": "Zeros", "config": {"dtype": "float32"}}, "name": "block3c_bn", "gamma_regularizer": null, "dtype": "float32", "trainable": true, "center": true, "moving_variance_initializer": {"class_name": "Ones", "config": {"dtype": "float32"}}, "beta_initializer": {"class_name": "Zeros", "config": {"dtype": "float32"}}, "scale": true, "epsilon": 0.001, "gamma_constraint": null, "beta_constraint": null, "beta_regularizer": null, "momentum": 0.99, "axis": [3]}, "name": "block3c_bn"}, {"class_name": "Activation", "inbound_nodes": [[["block3c_bn", 0, 0, {}]]], "config": {"dtype": "float32", "activation": "elu", "trainable": true, "name": "block3c_activation"}, "name": "block3c_activation"}, {"class_name": "Conv2D", "inbound_nodes": [[["block3c_activation", 0, 0, {}]]], "config": {"kernel_initializer": {"class_name": "VarianceScaling", "config": {"dtype": "float32", "distribution": "truncated_normal", "scale": 2.0, "seed": null, "mode": "fan_out"}}, "name": "block3c_project_conv", "kernel_constraint": null, "bias_regularizer": null, "bias_constraint": null, "dtype": "float32", "activation": "linear", "trainable": true, "data_format": "channels_last", "padding": "same", "strides": [1, 1], "dilation_rate": [1, 1], "kernel_regularizer": null, "filters": 48, "bias_initializer": {"class_name": "Zeros", "config": {"dtype": "float32"}}, "use_bias": false, "activity_regularizer": null, "kernel_size": [1, 1]}, "name": "block3c_project_conv"}, {"class_name": "BatchNormalization", "inbound_nodes": [[["block3c_project_conv", 0, 0, {}]]], "config": {"gamma_initializer": {"class_name": "Ones", "config": {"dtype": "float32"}}, "moving_mean_initializer": {"class_name": "Zeros", "config": {"dtype": "float32"}}, "name": "block3c_project_bn", "gamma_regularizer": null, "dtype": "float32", "trainable": true, "center": true, "moving_variance_initializer": {"class_name": "Ones", "config": {"dtype": "float32"}}, "beta_initializer": {"class_name": "Zeros", "config": {"dtype": "float32"}}, "scale": true, "epsilon": 0.001, "gamma_constraint": null, "beta_constraint": null, "beta_regularizer": null, "momentum": 0.99, "axis": [3]}, "name": "block3c_project_bn"}, {"class_name": "Add", "inbound_nodes": [[["block3c_project_bn", 0, 0, {}], ["block3b_add", 0, 0, {}]]], "config": {"dtype": "float32", "trainable": true, "name": "block3c_add"}, "name": "block3c_add"}, {"class_name": "Conv2D", "inbound_nodes": [[["block3c_add", 0, 0, {}]]], "config": {"kernel_initializer": {"class_name": "VarianceScaling", "config": {"dtype": "float32", "distribution": "truncated_normal", "scale": 2.0, "seed": null, "mode": "fan_out"}}, "name": "block4a_expand_conv", "kernel_constraint": null, "bias_regularizer": null, "bias_constraint": null, "dtype": "float32", "activation": "linear", "trainable": true, "data_format": "channels_last", "padding": "same", "strides": [1, 1], "dilation_rate": [1, 1], "kernel_regularizer": null, "filters": 288, "bias_initializer": {"class_name": "Zeros", "config": {"dtype": "float32"}}, "use_bias": false, "activity_regularizer": null, "kernel_size": [1, 1]}, "name": "block4a_expand_conv"}, {"class_name": "BatchNormalization", "inbound_nodes": [[["block4a_expand_conv", 0, 0, {}]]], "config": {"gamma_initializer": {"class_name": "Ones", "config": {"dtype": "float32"}}, "moving_mean_initializer": {"class_name": "Zeros", "config": {"dtype": "float32"}}, "name": "block4a_expand_bn", "gamma_regularizer": null, "dtype": "float32", "trainable": true, "center": true, "moving_variance_initializer": {"class_name": "Ones", "config": {"dtype": "float32"}}, "beta_initializer": {"class_name": "Zeros", "config": {"dtype": "float32"}}, "scale": true, "epsilon": 0.001, "gamma_constraint": null, "beta_constraint": null, "beta_regularizer": null, "momentum": 0.99, "axis": [3]}, "name": "block4a_expand_bn"}, {"class_name": "Activation", "inbound_nodes": [[["block4a_expand_bn", 0, 0, {}]]], "config": {"dtype": "float32", "activation": "elu", "trainable": true, "name": "block4a_expand_activation"}, "name": "block4a_expand_activation"}, {"class_name": "DepthwiseConv2D", "inbound_nodes": [[["block4a_expand_activation", 0, 0, {}]]], "config": {"depth_multiplier": 1, "name": "block4a_dwconv", "bias_regularizer": null, "bias_constraint": null, "dtype": "float32", "activation": "linear", "trainable": true, "depthwise_constraint": null, "data_format": "channels_last", "padding": "same", "strides": [2, 2], "dilation_rate": [1, 1], "depthwise_initializer": {"class_name": "VarianceScaling", "config": {"dtype": "float32", "distribution": "truncated_normal", "scale": 2.0, "seed": null, "mode": "fan_out"}}, "bias_initializer": {"class_name": "Zeros", "config": {"dtype": "float32"}}, "depthwise_regularizer": null, "use_bias": false, "activity_regularizer": null, "kernel_size": [3, 3]}, "name": "block4a_dwconv"}, {"class_name": "BatchNormalization", "inbound_nodes": [[["block4a_dwconv", 0, 0, {}]]], "config": {"gamma_initializer": {"class_name": "Ones", "config": {"dtype": "float32"}}, "moving_mean_initializer": {"class_name": "Zeros", "config": {"dtype": "float32"}}, "name": "block4a_bn", "gamma_regularizer": null, "dtype": "float32", "trainable": true, "center": true, "moving_variance_initializer": {"class_name": "Ones", "config": {"dtype": "float32"}}, "beta_initializer": {"class_name": "Zeros", "config": {"dtype": "float32"}}, "scale": true, "epsilon": 0.001, "gamma_constraint": null, "beta_constraint": null, "beta_regularizer": null, "momentum": 0.99, "axis": [3]}, "name": "block4a_bn"}, {"class_name": "Activation", "inbound_nodes": [[["block4a_bn", 0, 0, {}]]], "config": {"dtype": "float32", "activation": "elu", "trainable": true, "name": "block4a_activation"}, "name": "block4a_activation"}, {"class_name": "Conv2D", "inbound_nodes": [[["block4a_activation", 0, 0, {}]]], "config": {"kernel_initializer": {"class_name": "VarianceScaling", "config": {"dtype": "float32", "distribution": "truncated_normal", "scale": 2.0, "seed": null, "mode": "fan_out"}}, "name": "block4a_project_conv", "kernel_constraint": null, "bias_regularizer": null, "bias_constraint": null, "dtype": "float32", "activation": "linear", "trainable": true, "data_format": "channels_last", "padding": "same", "strides": [1, 1], "dilation_rate": [1, 1], "kernel_regularizer": null, "filters": 88, "bias_initializer": {"class_name": "Zeros", "config": {"dtype": "float32"}}, "use_bias": false, "activity_regularizer": null, "kernel_size": [1, 1]}, "name": "block4a_project_conv"}, {"class_name": "BatchNormalization", "inbound_nodes": [[["block4a_project_conv", 0, 0, {}]]], "config": {"gamma_initializer": {"class_name": "Ones", "config": {"dtype": "float32"}}, "moving_mean_initializer": {"class_name": "Zeros", "config": {"dtype": "float32"}}, "name": "block4a_project_bn", "gamma_regularizer": null, "dtype": "float32", "trainable": true, "center": true, "moving_variance_initializer": {"class_name": "Ones", "config": {"dtype": "float32"}}, "beta_initializer": {"class_name": "Zeros", "config": {"dtype": "float32"}}, "scale": true, "epsilon": 0.001, "gamma_constraint": null, "beta_constraint": null, "beta_regularizer": null, "momentum": 0.99, "axis": [3]}, "name": "block4a_project_bn"}, {"class_name": "Conv2D", "inbound_nodes": [[["block4a_project_bn", 0, 0, {}]]], "config": {"kernel_initializer": {"class_name": "VarianceScaling", "config": {"dtype": "float32", "distribution": "truncated_normal", "scale": 2.0, "seed": null, "mode": "fan_out"}}, "name": "block4b_expand_conv", "kernel_constraint": null, "bias_regularizer": null, "bias_constraint": null, "dtype": "float32", "activation": "linear", "trainable": true, "data_format": "channels_last", "padding": "same", "strides": [1, 1], "dilation_rate": [1, 1], "kernel_regularizer": null, "filters": 528, "bias_initializer": {"class_name": "Zeros", "config": {"dtype": "float32"}}, "use_bias": false, "activity_regularizer": null, "kernel_size": [1, 1]}, "name": "block4b_expand_conv"}, {"class_name": "BatchNormalization", "inbound_nodes": [[["block4b_expand_conv", 0, 0, {}]]], "config": {"gamma_initializer": {"class_name": "Ones", "config": {"dtype": "float32"}}, "moving_mean_initializer": {"class_name": "Zeros", "config": {"dtype": "float32"}}, "name": "block4b_expand_bn", "gamma_regularizer": null, "dtype": "float32", "trainable": true, "center": true, "moving_variance_initializer": {"class_name": "Ones", "config": {"dtype": "float32"}}, "beta_initializer": {"class_name": "Zeros", "config": {"dtype": "float32"}}, "scale": true, "epsilon": 0.001, "gamma_constraint": null, "beta_constraint": null, "beta_regularizer": null, "momentum": 0.99, "axis": [3]}, "name": "block4b_expand_bn"}, {"class_name": "Activation", "inbound_nodes": [[["block4b_expand_bn", 0, 0, {}]]], "config": {"dtype": "float32", "activation": "elu", "trainable": true, "name": "block4b_expand_activation"}, "name": "block4b_expand_activation"}, {"class_name": "DepthwiseConv2D", "inbound_nodes": [[["block4b_expand_activation", 0, 0, {}]]], "config": {"depth_multiplier": 1, "name": "block4b_dwconv", "bias_regularizer": null, "bias_constraint": null, "dtype": "float32", "activation": "linear", "trainable": true, "depthwise_constraint": null, "data_format": "channels_last", "padding": "same", "strides": [1, 1], "dilation_rate": [1, 1], "depthwise_initializer": {"class_name": "VarianceScaling", "config": {"dtype": "float32", "distribution": "truncated_normal", "scale": 2.0, "seed": null, "mode": "fan_out"}}, "bias_initializer": {"class_name": "Zeros", "config": {"dtype": "float32"}}, "depthwise_regularizer": null, "use_bias": false, "activity_regularizer": null, "kernel_size": [3, 3]}, "name": "block4b_dwconv"}, {"class_name": "BatchNormalization", "inbound_nodes": [[["block4b_dwconv", 0, 0, {}]]], "config": {"gamma_initializer": {"class_name": "Ones", "config": {"dtype": "float32"}}, "moving_mean_initializer": {"class_name": "Zeros", "config": {"dtype": "float32"}}, "name": "block4b_bn", "gamma_regularizer": null, "dtype": "float32", "trainable": true, "center": true, "moving_variance_initializer": {"class_name": "Ones", "config": {"dtype": "float32"}}, "beta_initializer": {"class_name": "Zeros", "config": {"dtype": "float32"}}, "scale": true, "epsilon": 0.001, "gamma_constraint": null, "beta_constraint": null, "beta_regularizer": null, "momentum": 0.99, "axis": [3]}, "name": "block4b_bn"}, {"class_name": "Activation", "inbound_nodes": [[["block4b_bn", 0, 0, {}]]], "config": {"dtype": "float32", "activation": "elu", "trainable": true, "name": "block4b_activation"}, "name": "block4b_activation"}, {"class_name": "Conv2D", "inbound_nodes": [[["block4b_activation", 0, 0, {}]]], "config": {"kernel_initializer": {"class_name": "VarianceScaling", "config": {"dtype": "float32", "distribution": "truncated_normal", "scale": 2.0, "seed": null, "mode": "fan_out"}}, "name": "block4b_project_conv", "kernel_constraint": null, "bias_regularizer": null, "bias_constraint": null, "dtype": "float32", "activation": "linear", "trainable": true, "data_format": "channels_last", "padding": "same", "strides": [1, 1], "dilation_rate": [1, 1], "kernel_regularizer": null, "filters": 88, "bias_initializer": {"class_name": "Zeros", "config": {"dtype": "float32"}}, "use_bias": false, "activity_regularizer": null, "kernel_size": [1, 1]}, "name": "block4b_project_conv"}, {"class_name": "BatchNormalization", "inbound_nodes": [[["block4b_project_conv", 0, 0, {}]]], "config": {"gamma_initializer": {"class_name": "Ones", "config": {"dtype": "float32"}}, "moving_mean_initializer": {"class_name": "Zeros", "config": {"dtype": "float32"}}, "name": "block4b_project_bn", "gamma_regularizer": null, "dtype": "float32", "trainable": true, "center": true, "moving_variance_initializer": {"class_name": "Ones", "config": {"dtype": "float32"}}, "beta_initializer": {"class_name": "Zeros", "config": {"dtype": "float32"}}, "scale": true, "epsilon": 0.001, "gamma_constraint": null, "beta_constraint": null, "beta_regularizer": null, "momentum": 0.99, "axis": [3]}, "name": "block4b_project_bn"}, {"class_name": "Add", "inbound_nodes": [[["block4b_project_bn", 0, 0, {}], ["block4a_project_bn", 0, 0, {}]]], "config": {"dtype": "float32", "trainable": true, "name": "block4b_add"}, "name": "block4b_add"}, {"class_name": "Conv2D", "inbound_nodes": [[["block4b_add", 0, 0, {}]]], "config": {"kernel_initializer": {"class_name": "VarianceScaling", "config": {"dtype": "float32", "distribution": "truncated_normal", "scale": 2.0, "seed": null, "mode": "fan_out"}}, "name": "block4c_expand_conv", "kernel_constraint": null, "bias_regularizer": null, "bias_constraint": null, "dtype": "float32", "activation": "linear", "trainable": true, "data_format": "channels_last", "padding": "same", "strides": [1, 1], "dilation_rate": [1, 1], "kernel_regularizer": null, "filters": 528, "bias_initializer": {"class_name": "Zeros", "config": {"dtype": "float32"}}, "use_bias": false, "activity_regularizer": null, "kernel_size": [1, 1]}, "name": "block4c_expand_conv"}, {"class_name": "BatchNormalization", "inbound_nodes": [[["block4c_expand_conv", 0, 0, {}]]], "config": {"gamma_initializer": {"class_name": "Ones", "config": {"dtype": "float32"}}, "moving_mean_initializer": {"class_name": "Zeros", "config": {"dtype": "float32"}}, "name": "block4c_expand_bn", "gamma_regularizer": null, "dtype": "float32", "trainable": true, "center": true, "moving_variance_initializer": {"class_name": "Ones", "config": {"dtype": "float32"}}, "beta_initializer": {"class_name": "Zeros", "config": {"dtype": "float32"}}, "scale": true, "epsilon": 0.001, "gamma_constraint": null, "beta_constraint": null, "beta_regularizer": null, "momentum": 0.99, "axis": [3]}, "name": "block4c_expand_bn"}, {"class_name": "Activation", "inbound_nodes": [[["block4c_expand_bn", 0, 0, {}]]], "config": {"dtype": "float32", "activation": "elu", "trainable": true, "name": "block4c_expand_activation"}, "name": "block4c_expand_activation"}, {"class_name": "DepthwiseConv2D", "inbound_nodes": [[["block4c_expand_activation", 0, 0, {}]]], "config": {"depth_multiplier": 1, "name": "block4c_dwconv", "bias_regularizer": null, "bias_constraint": null, "dtype": "float32", "activation": "linear", "trainable": true, "depthwise_constraint": null, "data_format": "channels_last", "padding": "same", "strides": [1, 1], "dilation_rate": [1, 1], "depthwise_initializer": {"class_name": "VarianceScaling", "config": {"dtype": "float32", "distribution": "truncated_normal", "scale": 2.0, "seed": null, "mode": "fan_out"}}, "bias_initializer": {"class_name": "Zeros", "config": {"dtype": "float32"}}, "depthwise_regularizer": null, "use_bias": false, "activity_regularizer": null, "kernel_size": [3, 3]}, "name": "block4c_dwconv"}, {"class_name": "BatchNormalization", "inbound_nodes": [[["block4c_dwconv", 0, 0, {}]]], "config": {"gamma_initializer": {"class_name": "Ones", "config": {"dtype": "float32"}}, "moving_mean_initializer": {"class_name": "Zeros", "config": {"dtype": "float32"}}, "name": "block4c_bn", "gamma_regularizer": null, "dtype": "float32", "trainable": true, "center": true, "moving_variance_initializer": {"class_name": "Ones", "config": {"dtype": "float32"}}, "beta_initializer": {"class_name": "Zeros", "config": {"dtype": "float32"}}, "scale": true, "epsilon": 0.001, "gamma_constraint": null, "beta_constraint": null, "beta_regularizer": null, "momentum": 0.99, "axis": [3]}, "name": "block4c_bn"}, {"class_name": "Activation", "inbound_nodes": [[["block4c_bn", 0, 0, {}]]], "config": {"dtype": "float32", "activation": "elu", "trainable": true, "name": "block4c_activation"}, "name": "block4c_activation"}, {"class_name": "Conv2D", "inbound_nodes": [[["block4c_activation", 0, 0, {}]]], "config": {"kernel_initializer": {"class_name": "VarianceScaling", "config": {"dtype": "float32", "distribution": "truncated_normal", "scale": 2.0, "seed": null, "mode": "fan_out"}}, "name": "block4c_project_conv", "kernel_constraint": null, "bias_regularizer": null, "bias_constraint": null, "dtype": "float32", "activation": "linear", "trainable": true, "data_format": "channels_last", "padding": "same", "strides": [1, 1], "dilation_rate": [1, 1], "kernel_regularizer": null, "filters": 88, "bias_initializer": {"class_name": "Zeros", "config": {"dtype": "float32"}}, "use_bias": false, "activity_regularizer": null, "kernel_size": [1, 1]}, "name": "block4c_project_conv"}, {"class_name": "BatchNormalization", "inbound_nodes": [[["block4c_project_conv", 0, 0, {}]]], "config": {"gamma_initializer": {"class_name": "Ones", "config": {"dtype": "float32"}}, "moving_mean_initializer": {"class_name": "Zeros", "config": {"dtype": "float32"}}, "name": "block4c_project_bn", "gamma_regularizer": null, "dtype": "float32", "trainable": true, "center": true, "moving_variance_initializer": {"class_name": "Ones", "config": {"dtype": "float32"}}, "beta_initializer": {"class_name": "Zeros", "config": {"dtype": "float32"}}, "scale": true, "epsilon": 0.001, "gamma_constraint": null, "beta_constraint": null, "beta_regularizer": null, "momentum": 0.99, "axis": [3]}, "name": "block4c_project_bn"}, {"class_name": "Add", "inbound_nodes": [[["block4c_project_bn", 0, 0, {}], ["block4b_add", 0, 0, {}]]], "config": {"dtype": "float32", "trainable": true, "name": "block4c_add"}, "name": "block4c_add"}, {"class_name": "Conv2D", "inbound_nodes": [[["block4c_add", 0, 0, {}]]], "config": {"kernel_initializer": {"class_name": "VarianceScaling", "config": {"dtype": "float32", "distribution": "truncated_normal", "scale": 2.0, "seed": null, "mode": "fan_out"}}, "name": "block4d_expand_conv", "kernel_constraint": null, "bias_regularizer": null, "bias_constraint": null, "dtype": "float32", "activation": "linear", "trainable": true, "data_format": "channels_last", "padding": "same", "strides": [1, 1], "dilation_rate": [1, 1], "kernel_regularizer": null, "filters": 528, "bias_initializer": {"class_name": "Zeros", "config": {"dtype": "float32"}}, "use_bias": false, "activity_regularizer": null, "kernel_size": [1, 1]}, "name": "block4d_expand_conv"}, {"class_name": "BatchNormalization", "inbound_nodes": [[["block4d_expand_conv", 0, 0, {}]]], "config": {"gamma_initializer": {"class_name": "Ones", "config": {"dtype": "float32"}}, "moving_mean_initializer": {"class_name": "Zeros", "config": {"dtype": "float32"}}, "name": "block4d_expand_bn", "gamma_regularizer": null, "dtype": "float32", "trainable": true, "center": true, "moving_variance_initializer": {"class_name": "Ones", "config": {"dtype": "float32"}}, "beta_initializer": {"class_name": "Zeros", "config": {"dtype": "float32"}}, "scale": true, "epsilon": 0.001, "gamma_constraint": null, "beta_constraint": null, "beta_regularizer": null, "momentum": 0.99, "axis": [3]}, "name": "block4d_expand_bn"}, {"class_name": "Activation", "inbound_nodes": [[["block4d_expand_bn", 0, 0, {}]]], "config": {"dtype": "float32", "activation": "elu", "trainable": true, "name": "block4d_expand_activation"}, "name": "block4d_expand_activation"}, {"class_name": "DepthwiseConv2D", "inbound_nodes": [[["block4d_expand_activation", 0, 0, {}]]], "config": {"depth_multiplier": 1, "name": "block4d_dwconv", "bias_regularizer": null, "bias_constraint": null, "dtype": "float32", "activation": "linear", "trainable": true, "depthwise_constraint": null, "data_format": "channels_last", "padding": "same", "strides": [1, 1], "dilation_rate": [1, 1], "depthwise_initializer": {"class_name": "VarianceScaling", "config": {"dtype": "float32", "distribution": "truncated_normal", "scale": 2.0, "seed": null, "mode": "fan_out"}}, "bias_initializer": {"class_name": "Zeros", "config": {"dtype": "float32"}}, "depthwise_regularizer": null, "use_bias": false, "activity_regularizer": null, "kernel_size": [3, 3]}, "name": "block4d_dwconv"}, {"class_name": "BatchNormalization", "inbound_nodes": [[["block4d_dwconv", 0, 0, {}]]], "config": {"gamma_initializer": {"class_name": "Ones", "config": {"dtype": "float32"}}, "moving_mean_initializer": {"class_name": "Zeros", "config": {"dtype": "float32"}}, "name": "block4d_bn", "gamma_regularizer": null, "dtype": "float32", "trainable": true, "center": true, "moving_variance_initializer": {"class_name": "Ones", "config": {"dtype": "float32"}}, "beta_initializer": {"class_name": "Zeros", "config": {"dtype": "float32"}}, "scale": true, "epsilon": 0.001, "gamma_constraint": null, "beta_constraint": null, "beta_regularizer": null, "momentum": 0.99, "axis": [3]}, "name": "block4d_bn"}, {"class_name": "Activation", "inbound_nodes": [[["block4d_bn", 0, 0, {}]]], "config": {"dtype": "float32", "activation": "elu", "trainable": true, "name": "block4d_activation"}, "name": "block4d_activation"}, {"class_name": "Conv2D", "inbound_nodes": [[["block4d_activation", 0, 0, {}]]], "config": {"kernel_initializer": {"class_name": "VarianceScaling", "config": {"dtype": "float32", "distribution": "truncated_normal", "scale": 2.0, "seed": null, "mode": "fan_out"}}, "name": "block4d_project_conv", "kernel_constraint": null, "bias_regularizer": null, "bias_constraint": null, "dtype": "float32", "activation": "linear", "trainable": true, "data_format": "channels_last", "padding": "same", "strides": [1, 1], "dilation_rate": [1, 1], "kernel_regularizer": null, "filters": 88, "bias_initializer": {"class_name": "Zeros", "config": {"dtype": "float32"}}, "use_bias": false, "activity_regularizer": null, "kernel_size": [1, 1]}, "name": "block4d_project_conv"}, {"class_name": "BatchNormalization", "inbound_nodes": [[["block4d_project_conv", 0, 0, {}]]], "config": {"gamma_initializer": {"class_name": "Ones", "config": {"dtype": "float32"}}, "moving_mean_initializer": {"class_name": "Zeros", "config": {"dtype": "float32"}}, "name": "block4d_project_bn", "gamma_regularizer": null, "dtype": "float32", "trainable": true, "center": true, "moving_variance_initializer": {"class_name": "Ones", "config": {"dtype": "float32"}}, "beta_initializer": {"class_name": "Zeros", "config": {"dtype": "float32"}}, "scale": true, "epsilon": 0.001, "gamma_constraint": null, "beta_constraint": null, "beta_regularizer": null, "momentum": 0.99, "axis": [3]}, "name": "block4d_project_bn"}, {"class_name": "Add", "inbound_nodes": [[["block4d_project_bn", 0, 0, {}], ["block4c_add", 0, 0, {}]]], "config": {"dtype": "float32", "trainable": true, "name": "block4d_add"}, "name": "block4d_add"}, {"class_name": "Conv2D", "inbound_nodes": [[["block4d_add", 0, 0, {}]]], "config": {"kernel_initializer": {"class_name": "VarianceScaling", "config": {"dtype": "float32", "distribution": "truncated_normal", "scale": 2.0, "seed": null, "mode": "fan_out"}}, "name": "block5a_expand_conv", "kernel_constraint": null, "bias_regularizer": null, "bias_constraint": null, "dtype": "float32", "activation": "linear", "trainable": true, "data_format": "channels_last", "padding": "same", "strides": [1, 1], "dilation_rate": [1, 1], "kernel_regularizer": null, "filters": 528, "bias_initializer": {"class_name": "Zeros", "config": {"dtype": "float32"}}, "use_bias": false, "activity_regularizer": null, "kernel_size": [1, 1]}, "name": "block5a_expand_conv"}, {"class_name": "BatchNormalization", "inbound_nodes": [[["block5a_expand_conv", 0, 0, {}]]], "config": {"gamma_initializer": {"class_name": "Ones", "config": {"dtype": "float32"}}, "moving_mean_initializer": {"class_name": "Zeros", "config": {"dtype": "float32"}}, "name": "block5a_expand_bn", "gamma_regularizer": null, "dtype": "float32", "trainable": true, "center": true, "moving_variance_initializer": {"class_name": "Ones", "config": {"dtype": "float32"}}, "beta_initializer": {"class_name": "Zeros", "config": {"dtype": "float32"}}, "scale": true, "epsilon": 0.001, "gamma_constraint": null, "beta_constraint": null, "beta_regularizer": null, "momentum": 0.99, "axis": [3]}, "name": "block5a_expand_bn"}, {"class_name": "Activation", "inbound_nodes": [[["block5a_expand_bn", 0, 0, {}]]], "config": {"dtype": "float32", "activation": "elu", "trainable": true, "name": "block5a_expand_activation"}, "name": "block5a_expand_activation"}, {"class_name": "DepthwiseConv2D", "inbound_nodes": [[["block5a_expand_activation", 0, 0, {}]]], "config": {"depth_multiplier": 1, "name": "block5a_dwconv", "bias_regularizer": null, "bias_constraint": null, "dtype": "float32", "activation": "linear", "trainable": true, "depthwise_constraint": null, "data_format": "channels_last", "padding": "same", "strides": [1, 1], "dilation_rate": [1, 1], "depthwise_initializer": {"class_name": "VarianceScaling", "config": {"dtype": "float32", "distribution": "truncated_normal", "scale": 2.0, "seed": null, "mode": "fan_out"}}, "bias_initializer": {"class_name": "Zeros", "config": {"dtype": "float32"}}, "depthwise_regularizer": null, "use_bias": false, "activity_regularizer": null, "kernel_size": [5, 5]}, "name": "block5a_dwconv"}, {"class_name": "BatchNormalization", "inbound_nodes": [[["block5a_dwconv", 0, 0, {}]]], "config": {"gamma_initializer": {"class_name": "Ones", "config": {"dtype": "float32"}}, "moving_mean_initializer": {"class_name": "Zeros", "config": {"dtype": "float32"}}, "name": "block5a_bn", "gamma_regularizer": null, "dtype": "float32", "trainable": true, "center": true, "moving_variance_initializer": {"class_name": "Ones", "config": {"dtype": "float32"}}, "beta_initializer": {"class_name": "Zeros", "config": {"dtype": "float32"}}, "scale": true, "epsilon": 0.001, "gamma_constraint": null, "beta_constraint": null, "beta_regularizer": null, "momentum": 0.99, "axis": [3]}, "name": "block5a_bn"}, {"class_name": "Activation", "inbound_nodes": [[["block5a_bn", 0, 0, {}]]], "config": {"dtype": "float32", "activation": "elu", "trainable": true, "name": "block5a_activation"}, "name": "block5a_activation"}, {"class_name": "Conv2D", "inbound_nodes": [[["block5a_activation", 0, 0, {}]]], "config": {"kernel_initializer": {"class_name": "VarianceScaling", "config": {"dtype": "float32", "distribution": "truncated_normal", "scale": 2.0, "seed": null, "mode": "fan_out"}}, "name": "block5a_project_conv", "kernel_constraint": null, "bias_regularizer": null, "bias_constraint": null, "dtype": "float32", "activation": "linear", "trainable": true, "data_format": "channels_last", "padding": "same", "strides": [1, 1], "dilation_rate": [1, 1], "kernel_regularizer": null, "filters": 120, "bias_initializer": {"class_name": "Zeros", "config": {"dtype": "float32"}}, "use_bias": false, "activity_regularizer": null, "kernel_size": [1, 1]}, "name": "block5a_project_conv"}, {"class_name": "BatchNormalization", "inbound_nodes": [[["block5a_project_conv", 0, 0, {}]]], "config": {"gamma_initializer": {"class_name": "Ones", "config": {"dtype": "float32"}}, "moving_mean_initializer": {"class_name": "Zeros", "config": {"dtype": "float32"}}, "name": "block5a_project_bn", "gamma_regularizer": null, "dtype": "float32", "trainable": true, "center": true, "moving_variance_initializer": {"class_name": "Ones", "config": {"dtype": "float32"}}, "beta_initializer": {"class_name": "Zeros", "config": {"dtype": "float32"}}, "scale": true, "epsilon": 0.001, "gamma_constraint": null, "beta_constraint": null, "beta_regularizer": null, "momentum": 0.99, "axis": [3]}, "name": "block5a_project_bn"}, {"class_name": "Conv2D", "inbound_nodes": [[["block5a_project_bn", 0, 0, {}]]], "config": {"kernel_initializer": {"class_name": "VarianceScaling", "config": {"dtype": "float32", "distribution": "truncated_normal", "scale": 2.0, "seed": null, "mode": "fan_out"}}, "name": "block5b_expand_conv", "kernel_constraint": null, "bias_regularizer": null, "bias_constraint": null, "dtype": "float32", "activation": "linear", "trainable": true, "data_format": "channels_last", "padding": "same", "strides": [1, 1], "dilation_rate": [1, 1], "kernel_regularizer": null, "filters": 720, "bias_initializer": {"class_name": "Zeros", "config": {"dtype": "float32"}}, "use_bias": false, "activity_regularizer": null, "kernel_size": [1, 1]}, "name": "block5b_expand_conv"}, {"class_name": "BatchNormalization", "inbound_nodes": [[["block5b_expand_conv", 0, 0, {}]]], "config": {"gamma_initializer": {"class_name": "Ones", "config": {"dtype": "float32"}}, "moving_mean_initializer": {"class_name": "Zeros", "config": {"dtype": "float32"}}, "name": "block5b_expand_bn", "gamma_regularizer": null, "dtype": "float32", "trainable": true, "center": true, "moving_variance_initializer": {"class_name": "Ones", "config": {"dtype": "float32"}}, "beta_initializer": {"class_name": "Zeros", "config": {"dtype": "float32"}}, "scale": true, "epsilon": 0.001, "gamma_constraint": null, "beta_constraint": null, "beta_regularizer": null, "momentum": 0.99, "axis": [3]}, "name": "block5b_expand_bn"}, {"class_name": "Activation", "inbound_nodes": [[["block5b_expand_bn", 0, 0, {}]]], "config": {"dtype": "float32", "activation": "elu", "trainable": true, "name": "block5b_expand_activation"}, "name": "block5b_expand_activation"}, {"class_name": "DepthwiseConv2D", "inbound_nodes": [[["block5b_expand_activation", 0, 0, {}]]], "config": {"depth_multiplier": 1, "name": "block5b_dwconv", "bias_regularizer": null, "bias_constraint": null, "dtype": "float32", "activation": "linear", "trainable": true, "depthwise_constraint": null, "data_format": "channels_last", "padding": "same", "strides": [1, 1], "dilation_rate": [1, 1], "depthwise_initializer": {"class_name": "VarianceScaling", "config": {"dtype": "float32", "distribution": "truncated_normal", "scale": 2.0, "seed": null, "mode": "fan_out"}}, "bias_initializer": {"class_name": "Zeros", "config": {"dtype": "float32"}}, "depthwise_regularizer": null, "use_bias": false, "activity_regularizer": null, "kernel_size": [5, 5]}, "name": "block5b_dwconv"}, {"class_name": "BatchNormalization", "inbound_nodes": [[["block5b_dwconv", 0, 0, {}]]], "config": {"gamma_initializer": {"class_name": "Ones", "config": {"dtype": "float32"}}, "moving_mean_initializer": {"class_name": "Zeros", "config": {"dtype": "float32"}}, "name": "block5b_bn", "gamma_regularizer": null, "dtype": "float32", "trainable": true, "center": true, "moving_variance_initializer": {"class_name": "Ones", "config": {"dtype": "float32"}}, "beta_initializer": {"class_name": "Zeros", "config": {"dtype": "float32"}}, "scale": true, "epsilon": 0.001, "gamma_constraint": null, "beta_constraint": null, "beta_regularizer": null, "momentum": 0.99, "axis": [3]}, "name": "block5b_bn"}, {"class_name": "Activation", "inbound_nodes": [[["block5b_bn", 0, 0, {}]]], "config": {"dtype": "float32", "activation": "elu", "trainable": true, "name": "block5b_activation"}, "name": "block5b_activation"}, {"class_name": "Conv2D", "inbound_nodes": [[["block5b_activation", 0, 0, {}]]], "config": {"kernel_initializer": {"class_name": "VarianceScaling", "config": {"dtype": "float32", "distribution": "truncated_normal", "scale": 2.0, "seed": null, "mode": "fan_out"}}, "name": "block5b_project_conv", "kernel_constraint": null, "bias_regularizer": null, "bias_constraint": null, "dtype": "float32", "activation": "linear", "trainable": true, "data_format": "channels_last", "padding": "same", "strides": [1, 1], "dilation_rate": [1, 1], "kernel_regularizer": null, "filters": 120, "bias_initializer": {"class_name": "Zeros", "config": {"dtype": "float32"}}, "use_bias": false, "activity_regularizer": null, "kernel_size": [1, 1]}, "name": "block5b_project_conv"}, {"class_name": "BatchNormalization", "inbound_nodes": [[["block5b_project_conv", 0, 0, {}]]], "config": {"gamma_initializer": {"class_name": "Ones", "config": {"dtype": "float32"}}, "moving_mean_initializer": {"class_name": "Zeros", "config": {"dtype": "float32"}}, "name": "block5b_project_bn", "gamma_regularizer": null, "dtype": "float32", "trainable": true, "center": true, "moving_variance_initializer": {"class_name": "Ones", "config": {"dtype": "float32"}}, "beta_initializer": {"class_name": "Zeros", "config": {"dtype": "float32"}}, "scale": true, "epsilon": 0.001, "gamma_constraint": null, "beta_constraint": null, "beta_regularizer": null, "momentum": 0.99, "axis": [3]}, "name": "block5b_project_bn"}, {"class_name": "Add", "inbound_nodes": [[["block5b_project_bn", 0, 0, {}], ["block5a_project_bn", 0, 0, {}]]], "config": {"dtype": "float32", "trainable": true, "name": "block5b_add"}, "name": "block5b_add"}, {"class_name": "Conv2D", "inbound_nodes": [[["block5b_add", 0, 0, {}]]], "config": {"kernel_initializer": {"class_name": "VarianceScaling", "config": {"dtype": "float32", "distribution": "truncated_normal", "scale": 2.0, "seed": null, "mode": "fan_out"}}, "name": "block5c_expand_conv", "kernel_constraint": null, "bias_regularizer": null, "bias_constraint": null, "dtype": "float32", "activation": "linear", "trainable": true, "data_format": "channels_last", "padding": "same", "strides": [1, 1], "dilation_rate": [1, 1], "kernel_regularizer": null, "filters": 720, "bias_initializer": {"class_name": "Zeros", "config": {"dtype": "float32"}}, "use_bias": false, "activity_regularizer": null, "kernel_size": [1, 1]}, "name": "block5c_expand_conv"}, {"class_name": "BatchNormalization", "inbound_nodes": [[["block5c_expand_conv", 0, 0, {}]]], "config": {"gamma_initializer": {"class_name": "Ones", "config": {"dtype": "float32"}}, "moving_mean_initializer": {"class_name": "Zeros", "config": {"dtype": "float32"}}, "name": "block5c_expand_bn", "gamma_regularizer": null, "dtype": "float32", "trainable": true, "center": true, "moving_variance_initializer": {"class_name": "Ones", "config": {"dtype": "float32"}}, "beta_initializer": {"class_name": "Zeros", "config": {"dtype": "float32"}}, "scale": true, "epsilon": 0.001, "gamma_constraint": null, "beta_constraint": null, "beta_regularizer": null, "momentum": 0.99, "axis": [3]}, "name": "block5c_expand_bn"}, {"class_name": "Activation", "inbound_nodes": [[["block5c_expand_bn", 0, 0, {}]]], "config": {"dtype": "float32", "activation": "elu", "trainable": true, "name": "block5c_expand_activation"}, "name": "block5c_expand_activation"}, {"class_name": "DepthwiseConv2D", "inbound_nodes": [[["block5c_expand_activation", 0, 0, {}]]], "config": {"depth_multiplier": 1, "name": "block5c_dwconv", "bias_regularizer": null, "bias_constraint": null, "dtype": "float32", "activation": "linear", "trainable": true, "depthwise_constraint": null, "data_format": "channels_last", "padding": "same", "strides": [1, 1], "dilation_rate": [1, 1], "depthwise_initializer": {"class_name": "VarianceScaling", "config": {"dtype": "float32", "distribution": "truncated_normal", "scale": 2.0, "seed": null, "mode": "fan_out"}}, "bias_initializer": {"class_name": "Zeros", "config": {"dtype": "float32"}}, "depthwise_regularizer": null, "use_bias": false, "activity_regularizer": null, "kernel_size": [5, 5]}, "name": "block5c_dwconv"}, {"class_name": "BatchNormalization", "inbound_nodes": [[["block5c_dwconv", 0, 0, {}]]], "config": {"gamma_initializer": {"class_name": "Ones", "config": {"dtype": "float32"}}, "moving_mean_initializer": {"class_name": "Zeros", "config": {"dtype": "float32"}}, "name": "block5c_bn", "gamma_regularizer": null, "dtype": "float32", "trainable": true, "center": true, "moving_variance_initializer": {"class_name": "Ones", "config": {"dtype": "float32"}}, "beta_initializer": {"class_name": "Zeros", "config": {"dtype": "float32"}}, "scale": true, "epsilon": 0.001, "gamma_constraint": null, "beta_constraint": null, "beta_regularizer": null, "momentum": 0.99, "axis": [3]}, "name": "block5c_bn"}, {"class_name": "Activation", "inbound_nodes": [[["block5c_bn", 0, 0, {}]]], "config": {"dtype": "float32", "activation": "elu", "trainable": true, "name": "block5c_activation"}, "name": "block5c_activation"}, {"class_name": "Conv2D", "inbound_nodes": [[["block5c_activation", 0, 0, {}]]], "config": {"kernel_initializer": {"class_name": "VarianceScaling", "config": {"dtype": "float32", "distribution": "truncated_normal", "scale": 2.0, "seed": null, "mode": "fan_out"}}, "name": "block5c_project_conv", "kernel_constraint": null, "bias_regularizer": null, "bias_constraint": null, "dtype": "float32", "activation": "linear", "trainable": true, "data_format": "channels_last", "padding": "same", "strides": [1, 1], "dilation_rate": [1, 1], "kernel_regularizer": null, "filters": 120, "bias_initializer": {"class_name": "Zeros", "config": {"dtype": "float32"}}, "use_bias": false, "activity_regularizer": null, "kernel_size": [1, 1]}, "name": "block5c_project_conv"}, {"class_name": "BatchNormalization", "inbound_nodes": [[["block5c_project_conv", 0, 0, {}]]], "config": {"gamma_initializer": {"class_name": "Ones", "config": {"dtype": "float32"}}, "moving_mean_initializer": {"class_name": "Zeros", "config": {"dtype": "float32"}}, "name": "block5c_project_bn", "gamma_regularizer": null, "dtype": "float32", "trainable": true, "center": true, "moving_variance_initializer": {"class_name": "Ones", "config": {"dtype": "float32"}}, "beta_initializer": {"class_name": "Zeros", "config": {"dtype": "float32"}}, "scale": true, "epsilon": 0.001, "gamma_constraint": null, "beta_constraint": null, "beta_regularizer": null, "momentum": 0.99, "axis": [3]}, "name": "block5c_project_bn"}, {"class_name": "Add", "inbound_nodes": [[["block5c_project_bn", 0, 0, {}], ["block5b_add", 0, 0, {}]]], "config": {"dtype": "float32", "trainable": true, "name": "block5c_add"}, "name": "block5c_add"}, {"class_name": "Conv2D", "inbound_nodes": [[["block5c_add", 0, 0, {}]]], "config": {"kernel_initializer": {"class_name": "VarianceScaling", "config": {"dtype": "float32", "distribution": "truncated_normal", "scale": 2.0, "seed": null, "mode": "fan_out"}}, "name": "block5d_expand_conv", "kernel_constraint": null, "bias_regularizer": null, "bias_constraint": null, "dtype": "float32", "activation": "linear", "trainable": true, "data_format": "channels_last", "padding": "same", "strides": [1, 1], "dilation_rate": [1, 1], "kernel_regularizer": null, "filters": 720, "bias_initializer": {"class_name": "Zeros", "config": {"dtype": "float32"}}, "use_bias": false, "activity_regularizer": null, "kernel_size": [1, 1]}, "name": "block5d_expand_conv"}, {"class_name": "BatchNormalization", "inbound_nodes": [[["block5d_expand_conv", 0, 0, {}]]], "config": {"gamma_initializer": {"class_name": "Ones", "config": {"dtype": "float32"}}, "moving_mean_initializer": {"class_name": "Zeros", "config": {"dtype": "float32"}}, "name": "block5d_expand_bn", "gamma_regularizer": null, "dtype": "float32", "trainable": true, "center": true, "moving_variance_initializer": {"class_name": "Ones", "config": {"dtype": "float32"}}, "beta_initializer": {"class_name": "Zeros", "config": {"dtype": "float32"}}, "scale": true, "epsilon": 0.001, "gamma_constraint": null, "beta_constraint": null, "beta_regularizer": null, "momentum": 0.99, "axis": [3]}, "name": "block5d_expand_bn"}, {"class_name": "Activation", "inbound_nodes": [[["block5d_expand_bn", 0, 0, {}]]], "config": {"dtype": "float32", "activation": "elu", "trainable": true, "name": "block5d_expand_activation"}, "name": "block5d_expand_activation"}, {"class_name": "DepthwiseConv2D", "inbound_nodes": [[["block5d_expand_activation", 0, 0, {}]]], "config": {"depth_multiplier": 1, "name": "block5d_dwconv", "bias_regularizer": null, "bias_constraint": null, "dtype": "float32", "activation": "linear", "trainable": true, "depthwise_constraint": null, "data_format": "channels_last", "padding": "same", "strides": [1, 1], "dilation_rate": [1, 1], "depthwise_initializer": {"class_name": "VarianceScaling", "config": {"dtype": "float32", "distribution": "truncated_normal", "scale": 2.0, "seed": null, "mode": "fan_out"}}, "bias_initializer": {"class_name": "Zeros", "config": {"dtype": "float32"}}, "depthwise_regularizer": null, "use_bias": false, "activity_regularizer": null, "kernel_size": [5, 5]}, "name": "block5d_dwconv"}, {"class_name": "BatchNormalization", "inbound_nodes": [[["block5d_dwconv", 0, 0, {}]]], "config": {"gamma_initializer": {"class_name": "Ones", "config": {"dtype": "float32"}}, "moving_mean_initializer": {"class_name": "Zeros", "config": {"dtype": "float32"}}, "name": "block5d_bn", "gamma_regularizer": null, "dtype": "float32", "trainable": true, "center": true, "moving_variance_initializer": {"class_name": "Ones", "config": {"dtype": "float32"}}, "beta_initializer": {"class_name": "Zeros", "config": {"dtype": "float32"}}, "scale": true, "epsilon": 0.001, "gamma_constraint": null, "beta_constraint": null, "beta_regularizer": null, "momentum": 0.99, "axis": [3]}, "name": "block5d_bn"}, {"class_name": "Activation", "inbound_nodes": [[["block5d_bn", 0, 0, {}]]], "config": {"dtype": "float32", "activation": "elu", "trainable": true, "name": "block5d_activation"}, "name": "block5d_activation"}, {"class_name": "Conv2D", "inbound_nodes": [[["block5d_activation", 0, 0, {}]]], "config": {"kernel_initializer": {"class_name": "VarianceScaling", "config": {"dtype": "float32", "distribution": "truncated_normal", "scale": 2.0, "seed": null, "mode": "fan_out"}}, "name": "block5d_project_conv", "kernel_constraint": null, "bias_regularizer": null, "bias_constraint": null, "dtype": "float32", "activation": "linear", "trainable": true, "data_format": "channels_last", "padding": "same", "strides": [1, 1], "dilation_rate": [1, 1], "kernel_regularizer": null, "filters": 120, "bias_initializer": {"class_name": "Zeros", "config": {"dtype": "float32"}}, "use_bias": false, "activity_regularizer": null, "kernel_size": [1, 1]}, "name": "block5d_project_conv"}, {"class_name": "BatchNormalization", "inbound_nodes": [[["block5d_project_conv", 0, 0, {}]]], "config": {"gamma_initializer": {"class_name": "Ones", "config": {"dtype": "float32"}}, "moving_mean_initializer": {"class_name": "Zeros", "config": {"dtype": "float32"}}, "name": "block5d_project_bn", "gamma_regularizer": null, "dtype": "float32", "trainable": true, "center": true, "moving_variance_initializer": {"class_name": "Ones", "config": {"dtype": "float32"}}, "beta_initializer": {"class_name": "Zeros", "config": {"dtype": "float32"}}, "scale": true, "epsilon": 0.001, "gamma_constraint": null, "beta_constraint": null, "beta_regularizer": null, "momentum": 0.99, "axis": [3]}, "name": "block5d_project_bn"}, {"class_name": "Add", "inbound_nodes": [[["block5d_project_bn", 0, 0, {}], ["block5c_add", 0, 0, {}]]], "config": {"dtype": "float32", "trainable": true, "name": "block5d_add"}, "name": "block5d_add"}, {"class_name": "Conv2D", "inbound_nodes": [[["block5d_add", 0, 0, {}]]], "config": {"kernel_initializer": {"class_name": "VarianceScaling", "config": {"dtype": "float32", "distribution": "truncated_normal", "scale": 2.0, "seed": null, "mode": "fan_out"}}, "name": "block6a_expand_conv", "kernel_constraint": null, "bias_regularizer": null, "bias_constraint": null, "dtype": "float32", "activation": "linear", "trainable": true, "data_format": "channels_last", "padding": "same", "strides": [1, 1], "dilation_rate": [1, 1], "kernel_regularizer": null, "filters": 720, "bias_initializer": {"class_name": "Zeros", "config": {"dtype": "float32"}}, "use_bias": false, "activity_regularizer": null, "kernel_size": [1, 1]}, "name": "block6a_expand_conv"}, {"class_name": "BatchNormalization", "inbound_nodes": [[["block6a_expand_conv", 0, 0, {}]]], "config": {"gamma_initializer": {"class_name": "Ones", "config": {"dtype": "float32"}}, "moving_mean_initializer": {"class_name": "Zeros", "config": {"dtype": "float32"}}, "name": "block6a_expand_bn", "gamma_regularizer": null, "dtype": "float32", "trainable": true, "center": true, "moving_variance_initializer": {"class_name": "Ones", "config": {"dtype": "float32"}}, "beta_initializer": {"class_name": "Zeros", "config": {"dtype": "float32"}}, "scale": true, "epsilon": 0.001, "gamma_constraint": null, "beta_constraint": null, "beta_regularizer": null, "momentum": 0.99, "axis": [3]}, "name": "block6a_expand_bn"}, {"class_name": "Activation", "inbound_nodes": [[["block6a_expand_bn", 0, 0, {}]]], "config": {"dtype": "float32", "activation": "elu", "trainable": true, "name": "block6a_expand_activation"}, "name": "block6a_expand_activation"}, {"class_name": "DepthwiseConv2D", "inbound_nodes": [[["block6a_expand_activation", 0, 0, {}]]], "config": {"depth_multiplier": 1, "name": "block6a_dwconv", "bias_regularizer": null, "bias_constraint": null, "dtype": "float32", "activation": "linear", "trainable": true, "depthwise_constraint": null, "data_format": "channels_last", "padding": "same", "strides": [2, 2], "dilation_rate": [1, 1], "depthwise_initializer": {"class_name": "VarianceScaling", "config": {"dtype": "float32", "distribution": "truncated_normal", "scale": 2.0, "seed": null, "mode": "fan_out"}}, "bias_initializer": {"class_name": "Zeros", "config": {"dtype": "float32"}}, "depthwise_regularizer": null, "use_bias": false, "activity_regularizer": null, "kernel_size": [5, 5]}, "name": "block6a_dwconv"}, {"class_name": "BatchNormalization", "inbound_nodes": [[["block6a_dwconv", 0, 0, {}]]], "config": {"gamma_initializer": {"class_name": "Ones", "config": {"dtype": "float32"}}, "moving_mean_initializer": {"class_name": "Zeros", "config": {"dtype": "float32"}}, "name": "block6a_bn", "gamma_regularizer": null, "dtype": "float32", "trainable": true, "center": true, "moving_variance_initializer": {"class_name": "Ones", "config": {"dtype": "float32"}}, "beta_initializer": {"class_name": "Zeros", "config": {"dtype": "float32"}}, "scale": true, "epsilon": 0.001, "gamma_constraint": null, "beta_constraint": null, "beta_regularizer": null, "momentum": 0.99, "axis": [3]}, "name": "block6a_bn"}, {"class_name": "Activation", "inbound_nodes": [[["block6a_bn", 0, 0, {}]]], "config": {"dtype": "float32", "activation": "elu", "trainable": true, "name": "block6a_activation"}, "name": "block6a_activation"}, {"class_name": "Conv2D", "inbound_nodes": [[["block6a_activation", 0, 0, {}]]], "config": {"kernel_initializer": {"class_name": "VarianceScaling", "config": {"dtype": "float32", "distribution": "truncated_normal", "scale": 2.0, "seed": null, "mode": "fan_out"}}, "name": "block6a_project_conv", "kernel_constraint": null, "bias_regularizer": null, "bias_constraint": null, "dtype": "float32", "activation": "linear", "trainable": true, "data_format": "channels_last", "padding": "same", "strides": [1, 1], "dilation_rate": [1, 1], "kernel_regularizer": null, "filters": 208, "bias_initializer": {"class_name": "Zeros", "config": {"dtype": "float32"}}, "use_bias": false, "activity_regularizer": null, "kernel_size": [1, 1]}, "name": "block6a_project_conv"}, {"class_name": "BatchNormalization", "inbound_nodes": [[["block6a_project_conv", 0, 0, {}]]], "config": {"gamma_initializer": {"class_name": "Ones", "config": {"dtype": "float32"}}, "moving_mean_initializer": {"class_name": "Zeros", "config": {"dtype": "float32"}}, "name": "block6a_project_bn", "gamma_regularizer": null, "dtype": "float32", "trainable": true, "center": true, "moving_variance_initializer": {"class_name": "Ones", "config": {"dtype": "float32"}}, "beta_initializer": {"class_name": "Zeros", "config": {"dtype": "float32"}}, "scale": true, "epsilon": 0.001, "gamma_constraint": null, "beta_constraint": null, "beta_regularizer": null, "momentum": 0.99, "axis": [3]}, "name": "block6a_project_bn"}, {"class_name": "Conv2D", "inbound_nodes": [[["block6a_project_bn", 0, 0, {}]]], "config": {"kernel_initializer": {"class_name": "VarianceScaling", "config": {"dtype": "float32", "distribution": "truncated_normal", "scale": 2.0, "seed": null, "mode": "fan_out"}}, "name": "block6b_expand_conv", "kernel_constraint": null, "bias_regularizer": null, "bias_constraint": null, "dtype": "float32", "activation": "linear", "trainable": true, "data_format": "channels_last", "padding": "same", "strides": [1, 1], "dilation_rate": [1, 1], "kernel_regularizer": null, "filters": 1248, "bias_initializer": {"class_name": "Zeros", "config": {"dtype": "float32"}}, "use_bias": false, "activity_regularizer": null, "kernel_size": [1, 1]}, "name": "block6b_expand_conv"}, {"class_name": "BatchNormalization", "inbound_nodes": [[["block6b_expand_conv", 0, 0, {}]]], "config": {"gamma_initializer": {"class_name": "Ones", "config": {"dtype": "float32"}}, "moving_mean_initializer": {"class_name": "Zeros", "config": {"dtype": "float32"}}, "name": "block6b_expand_bn", "gamma_regularizer": null, "dtype": "float32", "trainable": true, "center": true, "moving_variance_initializer": {"class_name": "Ones", "config": {"dtype": "float32"}}, "beta_initializer": {"class_name": "Zeros", "config": {"dtype": "float32"}}, "scale": true, "epsilon": 0.001, "gamma_constraint": null, "beta_constraint": null, "beta_regularizer": null, "momentum": 0.99, "axis": [3]}, "name": "block6b_expand_bn"}, {"class_name": "Activation", "inbound_nodes": [[["block6b_expand_bn", 0, 0, {}]]], "config": {"dtype": "float32", "activation": "elu", "trainable": true, "name": "block6b_expand_activation"}, "name": "block6b_expand_activation"}, {"class_name": "DepthwiseConv2D", "inbound_nodes": [[["block6b_expand_activation", 0, 0, {}]]], "config": {"depth_multiplier": 1, "name": "block6b_dwconv", "bias_regularizer": null, "bias_constraint": null, "dtype": "float32", "activation": "linear", "trainable": true, "depthwise_constraint": null, "data_format": "channels_last", "padding": "same", "strides": [1, 1], "dilation_rate": [1, 1], "depthwise_initializer": {"class_name": "VarianceScaling", "config": {"dtype": "float32", "distribution": "truncated_normal", "scale": 2.0, "seed": null, "mode": "fan_out"}}, "bias_initializer": {"class_name": "Zeros", "config": {"dtype": "float32"}}, "depthwise_regularizer": null, "use_bias": false, "activity_regularizer": null, "kernel_size": [5, 5]}, "name": "block6b_dwconv"}, {"class_name": "BatchNormalization", "inbound_nodes": [[["block6b_dwconv", 0, 0, {}]]], "config": {"gamma_initializer": {"class_name": "Ones", "config": {"dtype": "float32"}}, "moving_mean_initializer": {"class_name": "Zeros", "config": {"dtype": "float32"}}, "name": "block6b_bn", "gamma_regularizer": null, "dtype": "float32", "trainable": true, "center": true, "moving_variance_initializer": {"class_name": "Ones", "config": {"dtype": "float32"}}, "beta_initializer": {"class_name": "Zeros", "config": {"dtype": "float32"}}, "scale": true, "epsilon": 0.001, "gamma_constraint": null, "beta_constraint": null, "beta_regularizer": null, "momentum": 0.99, "axis": [3]}, "name": "block6b_bn"}, {"class_name": "Activation", "inbound_nodes": [[["block6b_bn", 0, 0, {}]]], "config": {"dtype": "float32", "activation": "elu", "trainable": true, "name": "block6b_activation"}, "name": "block6b_activation"}, {"class_name": "Conv2D", "inbound_nodes": [[["block6b_activation", 0, 0, {}]]], "config": {"kernel_initializer": {"class_name": "VarianceScaling", "config": {"dtype": "float32", "distribution": "truncated_normal", "scale": 2.0, "seed": null, "mode": "fan_out"}}, "name": "block6b_project_conv", "kernel_constraint": null, "bias_regularizer": null, "bias_constraint": null, "dtype": "float32", "activation": "linear", "trainable": true, "data_format": "channels_last", "padding": "same", "strides": [1, 1], "dilation_rate": [1, 1], "kernel_regularizer": null, "filters": 208, "bias_initializer": {"class_name": "Zeros", "config": {"dtype": "float32"}}, "use_bias": false, "activity_regularizer": null, "kernel_size": [1, 1]}, "name": "block6b_project_conv"}, {"class_name": "BatchNormalization", "inbound_nodes": [[["block6b_project_conv", 0, 0, {}]]], "config": {"gamma_initializer": {"class_name": "Ones", "config": {"dtype": "float32"}}, "moving_mean_initializer": {"class_name": "Zeros", "config": {"dtype": "float32"}}, "name": "block6b_project_bn", "gamma_regularizer": null, "dtype": "float32", "trainable": true, "center": true, "moving_variance_initializer": {"class_name": "Ones", "config": {"dtype": "float32"}}, "beta_initializer": {"class_name": "Zeros", "config": {"dtype": "float32"}}, "scale": true, "epsilon": 0.001, "gamma_constraint": null, "beta_constraint": null, "beta_regularizer": null, "momentum": 0.99, "axis": [3]}, "name": "block6b_project_bn"}, {"class_name": "Add", "inbound_nodes": [[["block6b_project_bn", 0, 0, {}], ["block6a_project_bn", 0, 0, {}]]], "config": {"dtype": "float32", "trainable": true, "name": "block6b_add"}, "name": "block6b_add"}, {"class_name": "Conv2D", "inbound_nodes": [[["block6b_add", 0, 0, {}]]], "config": {"kernel_initializer": {"class_name": "VarianceScaling", "config": {"dtype": "float32", "distribution": "truncated_normal", "scale": 2.0, "seed": null, "mode": "fan_out"}}, "name": "block6c_expand_conv", "kernel_constraint": null, "bias_regularizer": null, "bias_constraint": null, "dtype": "float32", "activation": "linear", "trainable": true, "data_format": "channels_last", "padding": "same", "strides": [1, 1], "dilation_rate": [1, 1], "kernel_regularizer": null, "filters": 1248, "bias_initializer": {"class_name": "Zeros", "config": {"dtype": "float32"}}, "use_bias": false, "activity_regularizer": null, "kernel_size": [1, 1]}, "name": "block6c_expand_conv"}, {"class_name": "BatchNormalization", "inbound_nodes": [[["block6c_expand_conv", 0, 0, {}]]], "config": {"gamma_initializer": {"class_name": "Ones", "config": {"dtype": "float32"}}, "moving_mean_initializer": {"class_name": "Zeros", "config": {"dtype": "float32"}}, "name": "block6c_expand_bn", "gamma_regularizer": null, "dtype": "float32", "trainable": true, "center": true, "moving_variance_initializer": {"class_name": "Ones", "config": {"dtype": "float32"}}, "beta_initializer": {"class_name": "Zeros", "config": {"dtype": "float32"}}, "scale": true, "epsilon": 0.001, "gamma_constraint": null, "beta_constraint": null, "beta_regularizer": null, "momentum": 0.99, "axis": [3]}, "name": "block6c_expand_bn"}, {"class_name": "Activation", "inbound_nodes": [[["block6c_expand_bn", 0, 0, {}]]], "config": {"dtype": "float32", "activation": "elu", "trainable": true, "name": "block6c_expand_activation"}, "name": "block6c_expand_activation"}, {"class_name": "DepthwiseConv2D", "inbound_nodes": [[["block6c_expand_activation", 0, 0, {}]]], "config": {"depth_multiplier": 1, "name": "block6c_dwconv", "bias_regularizer": null, "bias_constraint": null, "dtype": "float32", "activation": "linear", "trainable": true, "depthwise_constraint": null, "data_format": "channels_last", "padding": "same", "strides": [1, 1], "dilation_rate": [1, 1], "depthwise_initializer": {"class_name": "VarianceScaling", "config": {"dtype": "float32", "distribution": "truncated_normal", "scale": 2.0, "seed": null, "mode": "fan_out"}}, "bias_initializer": {"class_name": "Zeros", "config": {"dtype": "float32"}}, "depthwise_regularizer": null, "use_bias": false, "activity_regularizer": null, "kernel_size": [5, 5]}, "name": "block6c_dwconv"}, {"class_name": "BatchNormalization", "inbound_nodes": [[["block6c_dwconv", 0, 0, {}]]], "config": {"gamma_initializer": {"class_name": "Ones", "config": {"dtype": "float32"}}, "moving_mean_initializer": {"class_name": "Zeros", "config": {"dtype": "float32"}}, "name": "block6c_bn", "gamma_regularizer": null, "dtype": "float32", "trainable": true, "center": true, "moving_variance_initializer": {"class_name": "Ones", "config": {"dtype": "float32"}}, "beta_initializer": {"class_name": "Zeros", "config": {"dtype": "float32"}}, "scale": true, "epsilon": 0.001, "gamma_constraint": null, "beta_constraint": null, "beta_regularizer": null, "momentum": 0.99, "axis": [3]}, "name": "block6c_bn"}, {"class_name": "Activation", "inbound_nodes": [[["block6c_bn", 0, 0, {}]]], "config": {"dtype": "float32", "activation": "elu", "trainable": true, "name": "block6c_activation"}, "name": "block6c_activation"}, {"class_name": "Conv2D", "inbound_nodes": [[["block6c_activation", 0, 0, {}]]], "config": {"kernel_initializer": {"class_name": "VarianceScaling", "config": {"dtype": "float32", "distribution": "truncated_normal", "scale": 2.0, "seed": null, "mode": "fan_out"}}, "name": "block6c_project_conv", "kernel_constraint": null, "bias_regularizer": null, "bias_constraint": null, "dtype": "float32", "activation": "linear", "trainable": true, "data_format": "channels_last", "padding": "same", "strides": [1, 1], "dilation_rate": [1, 1], "kernel_regularizer": null, "filters": 208, "bias_initializer": {"class_name": "Zeros", "config": {"dtype": "float32"}}, "use_bias": false, "activity_regularizer": null, "kernel_size": [1, 1]}, "name": "block6c_project_conv"}, {"class_name": "BatchNormalization", "inbound_nodes": [[["block6c_project_conv", 0, 0, {}]]], "config": {"gamma_initializer": {"class_name": "Ones", "config": {"dtype": "float32"}}, "moving_mean_initializer": {"class_name": "Zeros", "config": {"dtype": "float32"}}, "name": "block6c_project_bn", "gamma_regularizer": null, "dtype": "float32", "trainable": true, "center": true, "moving_variance_initializer": {"class_name": "Ones", "config": {"dtype": "float32"}}, "beta_initializer": {"class_name": "Zeros", "config": {"dtype": "float32"}}, "scale": true, "epsilon": 0.001, "gamma_constraint": null, "beta_constraint": null, "beta_regularizer": null, "momentum": 0.99, "axis": [3]}, "name": "block6c_project_bn"}, {"class_name": "Add", "inbound_nodes": [[["block6c_project_bn", 0, 0, {}], ["block6b_add", 0, 0, {}]]], "config": {"dtype": "float32", "trainable": true, "name": "block6c_add"}, "name": "block6c_add"}, {"class_name": "Conv2D", "inbound_nodes": [[["block6c_add", 0, 0, {}]]], "config": {"kernel_initializer": {"class_name": "VarianceScaling", "config": {"dtype": "float32", "distribution": "truncated_normal", "scale": 2.0, "seed": null, "mode": "fan_out"}}, "name": "block6d_expand_conv", "kernel_constraint": null, "bias_regularizer": null, "bias_constraint": null, "dtype": "float32", "activation": "linear", "trainable": true, "data_format": "channels_last", "padding": "same", "strides": [1, 1], "dilation_rate": [1, 1], "kernel_regularizer": null, "filters": 1248, "bias_initializer": {"class_name": "Zeros", "config": {"dtype": "float32"}}, "use_bias": false, "activity_regularizer": null, "kernel_size": [1, 1]}, "name": "block6d_expand_conv"}, {"class_name": "BatchNormalization", "inbound_nodes": [[["block6d_expand_conv", 0, 0, {}]]], "config": {"gamma_initializer": {"class_name": "Ones", "config": {"dtype": "float32"}}, "moving_mean_initializer": {"class_name": "Zeros", "config": {"dtype": "float32"}}, "name": "block6d_expand_bn", "gamma_regularizer": null, "dtype": "float32", "trainable": true, "center": true, "moving_variance_initializer": {"class_name": "Ones", "config": {"dtype": "float32"}}, "beta_initializer": {"class_name": "Zeros", "config": {"dtype": "float32"}}, "scale": true, "epsilon": 0.001, "gamma_constraint": null, "beta_constraint": null, "beta_regularizer": null, "momentum": 0.99, "axis": [3]}, "name": "block6d_expand_bn"}, {"class_name": "Activation", "inbound_nodes": [[["block6d_expand_bn", 0, 0, {}]]], "config": {"dtype": "float32", "activation": "elu", "trainable": true, "name": "block6d_expand_activation"}, "name": "block6d_expand_activation"}, {"class_name": "DepthwiseConv2D", "inbound_nodes": [[["block6d_expand_activation", 0, 0, {}]]], "config": {"depth_multiplier": 1, "name": "block6d_dwconv", "bias_regularizer": null, "bias_constraint": null, "dtype": "float32", "activation": "linear", "trainable": true, "depthwise_constraint": null, "data_format": "channels_last", "padding": "same", "strides": [1, 1], "dilation_rate": [1, 1], "depthwise_initializer": {"class_name": "VarianceScaling", "config": {"dtype": "float32", "distribution": "truncated_normal", "scale": 2.0, "seed": null, "mode": "fan_out"}}, "bias_initializer": {"class_name": "Zeros", "config": {"dtype": "float32"}}, "depthwise_regularizer": null, "use_bias": false, "activity_regularizer": null, "kernel_size": [5, 5]}, "name": "block6d_dwconv"}, {"class_name": "BatchNormalization", "inbound_nodes": [[["block6d_dwconv", 0, 0, {}]]], "config": {"gamma_initializer": {"class_name": "Ones", "config": {"dtype": "float32"}}, "moving_mean_initializer": {"class_name": "Zeros", "config": {"dtype": "float32"}}, "name": "block6d_bn", "gamma_regularizer": null, "dtype": "float32", "trainable": true, "center": true, "moving_variance_initializer": {"class_name": "Ones", "config": {"dtype": "float32"}}, "beta_initializer": {"class_name": "Zeros", "config": {"dtype": "float32"}}, "scale": true, "epsilon": 0.001, "gamma_constraint": null, "beta_constraint": null, "beta_regularizer": null, "momentum": 0.99, "axis": [3]}, "name": "block6d_bn"}, {"class_name": "Activation", "inbound_nodes": [[["block6d_bn", 0, 0, {}]]], "config": {"dtype": "float32", "activation": "elu", "trainable": true, "name": "block6d_activation"}, "name": "block6d_activation"}, {"class_name": "Conv2D", "inbound_nodes": [[["block6d_activation", 0, 0, {}]]], "config": {"kernel_initializer": {"class_name": "VarianceScaling", "config": {"dtype": "float32", "distribution": "truncated_normal", "scale": 2.0, "seed": null, "mode": "fan_out"}}, "name": "block6d_project_conv", "kernel_constraint": null, "bias_regularizer": null, "bias_constraint": null, "dtype": "float32", "activation": "linear", "trainable": true, "data_format": "channels_last", "padding": "same", "strides": [1, 1], "dilation_rate": [1, 1], "kernel_regularizer": null, "filters": 208, "bias_initializer": {"class_name": "Zeros", "config": {"dtype": "float32"}}, "use_bias": false, "activity_regularizer": null, "kernel_size": [1, 1]}, "name": "block6d_project_conv"}, {"class_name": "BatchNormalization", "inbound_nodes": [[["block6d_project_conv", 0, 0, {}]]], "config": {"gamma_initializer": {"class_name": "Ones", "config": {"dtype": "float32"}}, "moving_mean_initializer": {"class_name": "Zeros", "config": {"dtype": "float32"}}, "name": "block6d_project_bn", "gamma_regularizer": null, "dtype": "float32", "trainable": true, "center": true, "moving_variance_initializer": {"class_name": "Ones", "config": {"dtype": "float32"}}, "beta_initializer": {"class_name": "Zeros", "config": {"dtype": "float32"}}, "scale": true, "epsilon": 0.001, "gamma_constraint": null, "beta_constraint": null, "beta_regularizer": null, "momentum": 0.99, "axis": [3]}, "name": "block6d_project_bn"}, {"class_name": "Add", "inbound_nodes": [[["block6d_project_bn", 0, 0, {}], ["block6c_add", 0, 0, {}]]], "config": {"dtype": "float32", "trainable": true, "name": "block6d_add"}, "name": "block6d_add"}, {"class_name": "Conv2D", "inbound_nodes": [[["block6d_add", 0, 0, {}]]], "config": {"kernel_initializer": {"class_name": "VarianceScaling", "config": {"dtype": "float32", "distribution": "truncated_normal", "scale": 2.0, "seed": null, "mode": "fan_out"}}, "name": "block6e_expand_conv", "kernel_constraint": null, "bias_regularizer": null, "bias_constraint": null, "dtype": "float32", "activation": "linear", "trainable": true, "data_format": "channels_last", "padding": "same", "strides": [1, 1], "dilation_rate": [1, 1], "kernel_regularizer": null, "filters": 1248, "bias_initializer": {"class_name": "Zeros", "config": {"dtype": "float32"}}, "use_bias": false, "activity_regularizer": null, "kernel_size": [1, 1]}, "name": "block6e_expand_conv"}, {"class_name": "BatchNormalization", "inbound_nodes": [[["block6e_expand_conv", 0, 0, {}]]], "config": {"gamma_initializer": {"class_name": "Ones", "config": {"dtype": "float32"}}, "moving_mean_initializer": {"class_name": "Zeros", "config": {"dtype": "float32"}}, "name": "block6e_expand_bn", "gamma_regularizer": null, "dtype": "float32", "trainable": true, "center": true, "moving_variance_initializer": {"class_name": "Ones", "config": {"dtype": "float32"}}, "beta_initializer": {"class_name": "Zeros", "config": {"dtype": "float32"}}, "scale": true, "epsilon": 0.001, "gamma_constraint": null, "beta_constraint": null, "beta_regularizer": null, "momentum": 0.99, "axis": [3]}, "name": "block6e_expand_bn"}, {"class_name": "Activation", "inbound_nodes": [[["block6e_expand_bn", 0, 0, {}]]], "config": {"dtype": "float32", "activation": "elu", "trainable": true, "name": "block6e_expand_activation"}, "name": "block6e_expand_activation"}, {"class_name": "DepthwiseConv2D", "inbound_nodes": [[["block6e_expand_activation", 0, 0, {}]]], "config": {"depth_multiplier": 1, "name": "block6e_dwconv", "bias_regularizer": null, "bias_constraint": null, "dtype": "float32", "activation": "linear", "trainable": true, "depthwise_constraint": null, "data_format": "channels_last", "padding": "same", "strides": [1, 1], "dilation_rate": [1, 1], "depthwise_initializer": {"class_name": "VarianceScaling", "config": {"dtype": "float32", "distribution": "truncated_normal", "scale": 2.0, "seed": null, "mode": "fan_out"}}, "bias_initializer": {"class_name": "Zeros", "config": {"dtype": "float32"}}, "depthwise_regularizer": null, "use_bias": false, "activity_regularizer": null, "kernel_size": [5, 5]}, "name": "block6e_dwconv"}, {"class_name": "BatchNormalization", "inbound_nodes": [[["block6e_dwconv", 0, 0, {}]]], "config": {"gamma_initializer": {"class_name": "Ones", "config": {"dtype": "float32"}}, "moving_mean_initializer": {"class_name": "Zeros", "config": {"dtype": "float32"}}, "name": "block6e_bn", "gamma_regularizer": null, "dtype": "float32", "trainable": true, "center": true, "moving_variance_initializer": {"class_name": "Ones", "config": {"dtype": "float32"}}, "beta_initializer": {"class_name": "Zeros", "config": {"dtype": "float32"}}, "scale": true, "epsilon": 0.001, "gamma_constraint": null, "beta_constraint": null, "beta_regularizer": null, "momentum": 0.99, "axis": [3]}, "name": "block6e_bn"}, {"class_name": "Activation", "inbound_nodes": [[["block6e_bn", 0, 0, {}]]], "config": {"dtype": "float32", "activation": "elu", "trainable": true, "name": "block6e_activation"}, "name": "block6e_activation"}, {"class_name": "Conv2D", "inbound_nodes": [[["block6e_activation", 0, 0, {}]]], "config": {"kernel_initializer": {"class_name": "VarianceScaling", "config": {"dtype": "float32", "distribution": "truncated_normal", "scale": 2.0, "seed": null, "mode": "fan_out"}}, "name": "block6e_project_conv", "kernel_constraint": null, "bias_regularizer": null, "bias_constraint": null, "dtype": "float32", "activation": "linear", "trainable": true, "data_format": "channels_last", "padding": "same", "strides": [1, 1], "dilation_rate": [1, 1], "kernel_regularizer": null, "filters": 208, "bias_initializer": {"class_name": "Zeros", "config": {"dtype": "float32"}}, "use_bias": false, "activity_regularizer": null, "kernel_size": [1, 1]}, "name": "block6e_project_conv"}, {"class_name": "BatchNormalization", "inbound_nodes": [[["block6e_project_conv", 0, 0, {}]]], "config": {"gamma_initializer": {"class_name": "Ones", "config": {"dtype": "float32"}}, "moving_mean_initializer": {"class_name": "Zeros", "config": {"dtype": "float32"}}, "name": "block6e_project_bn", "gamma_regularizer": null, "dtype": "float32", "trainable": true, "center": true, "moving_variance_initializer": {"class_name": "Ones", "config": {"dtype": "float32"}}, "beta_initializer": {"class_name": "Zeros", "config": {"dtype": "float32"}}, "scale": true, "epsilon": 0.001, "gamma_constraint": null, "beta_constraint": null, "beta_regularizer": null, "momentum": 0.99, "axis": [3]}, "name": "block6e_project_bn"}, {"class_name": "Add", "inbound_nodes": [[["block6e_project_bn", 0, 0, {}], ["block6d_add", 0, 0, {}]]], "config": {"dtype": "float32", "trainable": true, "name": "block6e_add"}, "name": "block6e_add"}, {"class_name": "Conv2D", "inbound_nodes": [[["block6e_add", 0, 0, {}]]], "config": {"kernel_initializer": {"class_name": "VarianceScaling", "config": {"dtype": "float32", "distribution": "truncated_normal", "scale": 2.0, "seed": null, "mode": "fan_out"}}, "name": "block7a_expand_conv", "kernel_constraint": null, "bias_regularizer": null, "bias_constraint": null, "dtype": "float32", "activation": "linear", "trainable": true, "data_format": "channels_last", "padding": "same", "strides": [1, 1], "dilation_rate": [1, 1], "kernel_regularizer": null, "filters": 1248, "bias_initializer": {"class_name": "Zeros", "config": {"dtype": "float32"}}, "use_bias": false, "activity_regularizer": null, "kernel_size": [1, 1]}, "name": "block7a_expand_conv"}, {"class_name": "BatchNormalization", "inbound_nodes": [[["block7a_expand_conv", 0, 0, {}]]], "config": {"gamma_initializer": {"class_name": "Ones", "config": {"dtype": "float32"}}, "moving_mean_initializer": {"class_name": "Zeros", "config": {"dtype": "float32"}}, "name": "block7a_expand_bn", "gamma_regularizer": null, "dtype": "float32", "trainable": true, "center": true, "moving_variance_initializer": {"class_name": "Ones", "config": {"dtype": "float32"}}, "beta_initializer": {"class_name": "Zeros", "config": {"dtype": "float32"}}, "scale": true, "epsilon": 0.001, "gamma_constraint": null, "beta_constraint": null, "beta_regularizer": null, "momentum": 0.99, "axis": [3]}, "name": "block7a_expand_bn"}, {"class_name": "Activation", "inbound_nodes": [[["block7a_expand_bn", 0, 0, {}]]], "config": {"dtype": "float32", "activation": "elu", "trainable": true, "name": "block7a_expand_activation"}, "name": "block7a_expand_activation"}, {"class_name": "DepthwiseConv2D", "inbound_nodes": [[["block7a_expand_activation", 0, 0, {}]]], "config": {"depth_multiplier": 1, "name": "block7a_dwconv", "bias_regularizer": null, "bias_constraint": null, "dtype": "float32", "activation": "linear", "trainable": true, "depthwise_constraint": null, "data_format": "channels_last", "padding": "same", "strides": [1, 1], "dilation_rate": [1, 1], "depthwise_initializer": {"class_name": "VarianceScaling", "config": {"dtype": "float32", "distribution": "truncated_normal", "scale": 2.0, "seed": null, "mode": "fan_out"}}, "bias_initializer": {"class_name": "Zeros", "config": {"dtype": "float32"}}, "depthwise_regularizer": null, "use_bias": false, "activity_regularizer": null, "kernel_size": [3, 3]}, "name": "block7a_dwconv"}, {"class_name": "BatchNormalization", "inbound_nodes": [[["block7a_dwconv", 0, 0, {}]]], "config": {"gamma_initializer": {"class_name": "Ones", "config": {"dtype": "float32"}}, "moving_mean_initializer": {"class_name": "Zeros", "config": {"dtype": "float32"}}, "name": "block7a_bn", "gamma_regularizer": null, "dtype": "float32", "trainable": true, "center": true, "moving_variance_initializer": {"class_name": "Ones", "config": {"dtype": "float32"}}, "beta_initializer": {"class_name": "Zeros", "config": {"dtype": "float32"}}, "scale": true, "epsilon": 0.001, "gamma_constraint": null, "beta_constraint": null, "beta_regularizer": null, "momentum": 0.99, "axis": [3]}, "name": "block7a_bn"}, {"class_name": "Activation", "inbound_nodes": [[["block7a_bn", 0, 0, {}]]], "config": {"dtype": "float32", "activation": "elu", "trainable": true, "name": "block7a_activation"}, "name": "block7a_activation"}, {"class_name": "Conv2D", "inbound_nodes": [[["block7a_activation", 0, 0, {}]]], "config": {"kernel_initializer": {"class_name": "VarianceScaling", "config": {"dtype": "float32", "distribution": "truncated_normal", "scale": 2.0, "seed": null, "mode": "fan_out"}}, "name": "block7a_project_conv", "kernel_constraint": null, "bias_regularizer": null, "bias_constraint": null, "dtype": "float32", "activation": "linear", "trainable": true, "data_format": "channels_last", "padding": "same", "strides": [1, 1], "dilation_rate": [1, 1], "kernel_regularizer": null, "filters": 352, "bias_initializer": {"class_name": "Zeros", "config": {"dtype": "float32"}}, "use_bias": false, "activity_regularizer": null, "kernel_size": [1, 1]}, "name": "block7a_project_conv"}, {"class_name": "BatchNormalization", "inbound_nodes": [[["block7a_project_conv", 0, 0, {}]]], "config": {"gamma_initializer": {"class_name": "Ones", "config": {"dtype": "float32"}}, "moving_mean_initializer": {"class_name": "Zeros", "config": {"dtype": "float32"}}, "name": "block7a_project_bn", "gamma_regularizer": null, "dtype": "float32", "trainable": true, "center": true, "moving_variance_initializer": {"class_name": "Ones", "config": {"dtype": "float32"}}, "beta_initializer": {"class_name": "Zeros", "config": {"dtype": "float32"}}, "scale": true, "epsilon": 0.001, "gamma_constraint": null, "beta_constraint": null, "beta_regularizer": null, "momentum": 0.99, "axis": [3]}, "name": "block7a_project_bn"}, {"class_name": "Conv2D", "inbound_nodes": [[["block7a_project_bn", 0, 0, {}]]], "config": {"kernel_initializer": {"class_name": "VarianceScaling", "config": {"dtype": "float32", "distribution": "truncated_normal", "scale": 2.0, "seed": null, "mode": "fan_out"}}, "name": "block7b_expand_conv", "kernel_constraint": null, "bias_regularizer": null, "bias_constraint": null, "dtype": "float32", "activation": "linear", "trainable": true, "data_format": "channels_last", "padding": "same", "strides": [1, 1], "dilation_rate": [1, 1], "kernel_regularizer": null, "filters": 2112, "bias_initializer": {"class_name": "Zeros", "config": {"dtype": "float32"}}, "use_bias": false, "activity_regularizer": null, "kernel_size": [1, 1]}, "name": "block7b_expand_conv"}, {"class_name": "BatchNormalization", "inbound_nodes": [[["block7b_expand_conv", 0, 0, {}]]], "config": {"gamma_initializer": {"class_name": "Ones", "config": {"dtype": "float32"}}, "moving_mean_initializer": {"class_name": "Zeros", "config": {"dtype": "float32"}}, "name": "block7b_expand_bn", "gamma_regularizer": null, "dtype": "float32", "trainable": true, "center": true, "moving_variance_initializer": {"class_name": "Ones", "config": {"dtype": "float32"}}, "beta_initializer": {"class_name": "Zeros", "config": {"dtype": "float32"}}, "scale": true, "epsilon": 0.001, "gamma_constraint": null, "beta_constraint": null, "beta_regularizer": null, "momentum": 0.99, "axis": [3]}, "name": "block7b_expand_bn"}, {"class_name": "Activation", "inbound_nodes": [[["block7b_expand_bn", 0, 0, {}]]], "config": {"dtype": "float32", "activation": "elu", "trainable": true, "name": "block7b_expand_activation"}, "name": "block7b_expand_activation"}, {"class_name": "DepthwiseConv2D", "inbound_nodes": [[["block7b_expand_activation", 0, 0, {}]]], "config": {"depth_multiplier": 1, "name": "block7b_dwconv", "bias_regularizer": null, "bias_constraint": null, "dtype": "float32", "activation": "linear", "trainable": true, "depthwise_constraint": null, "data_format": "channels_last", "padding": "same", "strides": [1, 1], "dilation_rate": [1, 1], "depthwise_initializer": {"class_name": "VarianceScaling", "config": {"dtype": "float32", "distribution": "truncated_normal", "scale": 2.0, "seed": null, "mode": "fan_out"}}, "bias_initializer": {"class_name": "Zeros", "config": {"dtype": "float32"}}, "depthwise_regularizer": null, "use_bias": false, "activity_regularizer": null, "kernel_size": [3, 3]}, "name": "block7b_dwconv"}, {"class_name": "BatchNormalization", "inbound_nodes": [[["block7b_dwconv", 0, 0, {}]]], "config": {"gamma_initializer": {"class_name": "Ones", "config": {"dtype": "float32"}}, "moving_mean_initializer": {"class_name": "Zeros", "config": {"dtype": "float32"}}, "name": "block7b_bn", "gamma_regularizer": null, "dtype": "float32", "trainable": true, "center": true, "moving_variance_initializer": {"class_name": "Ones", "config": {"dtype": "float32"}}, "beta_initializer": {"class_name": "Zeros", "config": {"dtype": "float32"}}, "scale": true, "epsilon": 0.001, "gamma_constraint": null, "beta_constraint": null, "beta_regularizer": null, "momentum": 0.99, "axis": [3]}, "name": "block7b_bn"}, {"class_name": "Activation", "inbound_nodes": [[["block7b_bn", 0, 0, {}]]], "config": {"dtype": "float32", "activation": "elu", "trainable": true, "name": "block7b_activation"}, "name": "block7b_activation"}, {"class_name": "Conv2D", "inbound_nodes": [[["block7b_activation", 0, 0, {}]]], "config": {"kernel_initializer": {"class_name": "VarianceScaling", "config": {"dtype": "float32", "distribution": "truncated_normal", "scale": 2.0, "seed": null, "mode": "fan_out"}}, "name": "block7b_project_conv", "kernel_constraint": null, "bias_regularizer": null, "bias_constraint": null, "dtype": "float32", "activation": "linear", "trainable": true, "data_format": "channels_last", "padding": "same", "strides": [1, 1], "dilation_rate": [1, 1], "kernel_regularizer": null, "filters": 352, "bias_initializer": {"class_name": "Zeros", "config": {"dtype": "float32"}}, "use_bias": false, "activity_regularizer": null, "kernel_size": [1, 1]}, "name": "block7b_project_conv"}, {"class_name": "BatchNormalization", "inbound_nodes": [[["block7b_project_conv", 0, 0, {}]]], "config": {"gamma_initializer": {"class_name": "Ones", "config": {"dtype": "float32"}}, "moving_mean_initializer": {"class_name": "Zeros", "config": {"dtype": "float32"}}, "name": "block7b_project_bn", "gamma_regularizer": null, "dtype": "float32", "trainable": true, "center": true, "moving_variance_initializer": {"class_name": "Ones", "config": {"dtype": "float32"}}, "beta_initializer": {"class_name": "Zeros", "config": {"dtype": "float32"}}, "scale": true, "epsilon": 0.001, "gamma_constraint": null, "beta_constraint": null, "beta_regularizer": null, "momentum": 0.99, "axis": [3]}, "name": "block7b_project_bn"}, {"class_name": "Add", "inbound_nodes": [[["block7b_project_bn", 0, 0, {}], ["block7a_project_bn", 0, 0, {}]]], "config": {"dtype": "float32", "trainable": true, "name": "block7b_add"}, "name": "block7b_add"}, {"class_name": "Conv2D", "inbound_nodes": [[["block7b_add", 0, 0, {}]]], "config": {"kernel_initializer": {"class_name": "VarianceScaling", "config": {"dtype": "float32", "distribution": "truncated_normal", "scale": 2.0, "seed": null, "mode": "fan_out"}}, "name": "top_conv", "kernel_constraint": null, "bias_regularizer": null, "bias_constraint": null, "dtype": "float32", "activation": "linear", "trainable": true, "data_format": "channels_last", "padding": "same", "strides": [1, 1], "dilation_rate": [1, 1], "kernel_regularizer": null, "filters": 1408, "bias_initializer": {"class_name": "Zeros", "config": {"dtype": "float32"}}, "use_bias": false, "activity_regularizer": null, "kernel_size": [1, 1]}, "name": "top_conv"}, {"class_name": "BatchNormalization", "inbound_nodes": [[["top_conv", 0, 0, {}]]], "config": {"gamma_initializer": {"class_name": "Ones", "config": {"dtype": "float32"}}, "moving_mean_initializer": {"class_name": "Zeros", "config": {"dtype": "float32"}}, "name": "top_bn", "gamma_regularizer": null, "dtype": "float32", "trainable": true, "center": true, "moving_variance_initializer": {"class_name": "Ones", "config": {"dtype": "float32"}}, "beta_initializer": {"class_name": "Zeros", "config": {"dtype": "float32"}}, "scale": true, "epsilon": 0.001, "gamma_constraint": null, "beta_constraint": null, "beta_regularizer": null, "momentum": 0.99, "axis": [3]}, "name": "top_bn"}, {"class_name": "Activation", "inbound_nodes": [[["top_bn", 0, 0, {}]]], "config": {"dtype": "float32", "activation": "elu", "trainable": true, "name": "top_activation"}, "name": "top_activation"}], "input_layers": [["input_1", 0, 0]], "name": "efficientnet-b2", "output_layers": [["top_activation", 0, 0]]}, "inbound_nodes": [[["permute", 0, 0, {}]]], "name": "efficientnet-b2"}, {"class_name": "Conv2D", "config": {"kernel_initializer": {"class_name": "GlorotUniform", "config": {"dtype": "float32", "seed": null}}, "name": "conv2d", "kernel_constraint": null, "bias_regularizer": null, "bias_constraint": null, "dtype": "float32", "activation": "linear", "trainable": true, "data_format": "channels_last", "padding": "same", "strides": [1, 1], "dilation_rate": [1, 1], "kernel_regularizer": null, "filters": 32, "bias_initializer": {"class_name": "Zeros", "config": {"dtype": "float32"}}, "use_bias": true, "activity_regularizer": null, "kernel_size": [1, 1]}, "inbound_nodes": [[["efficientnet-b2", 1, 0, {}]]], "name": "conv2d"}, {"class_name": "BatchNormalization", "config": {"beta_constraint": null, "gamma_initializer": {"class_name": "Ones", "config": {"dtype": "float32"}}, "moving_mean_initializer": {"class_name": "Zeros", "config": {"dtype": "float32"}}, "name": "batch_normalization", "dtype": "float32", "trainable": true, "moving_variance_initializer": {"class_name": "Ones", "config": {"dtype": "float32"}}, "beta_initializer": {"class_name": "Zeros", "config": {"dtype": "float32"}}, "scale": true, "axis": [3], "epsilon": 0.001, "gamma_constraint": null, "gamma_regularizer": null, "beta_regularizer": null, "momentum": 0.99, "center": true}, "inbound_nodes": [[["conv2d", 0, 0, {}]]], "name": "batch_normalization"}, {"class_name": "ELU", "config": {"dtype": "float32", "trainable": true, "name": "elu", "alpha": 1.0}, "inbound_nodes": [[["batch_normalization", 0, 0, {}]]], "name": "elu"}, {"class_name": "InputLayer", "config": {"dtype": "float32", "batch_input_shape": [null, 8], "name": "desire", "sparse": false}, "inbound_nodes": [], "name": "desire"}, {"class_name": "InputLayer", "config": {"dtype": "float32", "batch_input_shape": [null, 2], "name": "traffic_convention", "sparse": false}, "inbound_nodes": [], "name": "traffic_convention"}, {"class_name": "Flatten", "config": {"dtype": "float32", "trainable": true, "name": "vision_features", "data_format": "channels_last"}, "inbound_nodes": [[["elu", 0, 0, {}]]], "name": "vision_features"}, {"class_name": "Dense", "config": {"kernel_initializer": {"class_name": "GlorotUniform", "config": {"dtype": "float32", "seed": null}}, "name": "snpe_desire_pleaser", "kernel_constraint": null, "bias_regularizer": null, "bias_constraint": null, "dtype": "float32", "activation": "linear", "trainable": true, "kernel_regularizer": null, "bias_initializer": {"class_name": "Zeros", "config": {"dtype": "float32"}}, "units": 8, "use_bias": true, "activity_regularizer": null}, "inbound_nodes": [[["desire", 0, 0, {}]]], "name": "snpe_desire_pleaser"}, {"class_name": "Dense", "config": {"kernel_initializer": {"class_name": "GlorotUniform", "config": {"dtype": "float32", "seed": null}}, "name": "snpe_traffic_pleaser", "kernel_constraint": null, "bias_regularizer": null, "bias_constraint": null, "dtype": "float32", "activation": "linear", "trainable": true, "kernel_regularizer": null, "bias_initializer": {"class_name": "Zeros", "config": {"dtype": "float32"}}, "units": 2, "use_bias": true, "activity_regularizer": null}, "inbound_nodes": [[["traffic_convention", 0, 0, {}]]], "name": "snpe_traffic_pleaser"}, {"class_name": "Concatenate", "config": {"dtype": "float32", "trainable": true, "name": "proc_features", "axis": -1}, "inbound_nodes": [[["vision_features", 0, 0, {}], ["snpe_desire_pleaser", 0, 0, {}], ["snpe_traffic_pleaser", 0, 0, {}]]], "name": "proc_features"}, {"class_name": "Dense", "config": {"kernel_initializer": {"class_name": "GlorotUniform", "config": {"dtype": "float32", "seed": null}}, "name": "pre_gru_dense", "kernel_constraint": null, "bias_regularizer": null, "bias_constraint": null, "dtype": "float32", "activation": "linear", "trainable": true, "kernel_regularizer": null, "bias_initializer": {"class_name": "Zeros", "config": {"dtype": "float32"}}, "units": 1024, "use_bias": true, "activity_regularizer": null}, "inbound_nodes": [[["proc_features", 0, 0, {}]]], "name": "pre_gru_dense"}, {"class_name": "ReLU", "config": {"name": "re_lu", "dtype": "float32", "trainable": true, "max_value": null, "threshold": 0.0, "negative_slope": 0.0}, "inbound_nodes": [[["pre_gru_dense", 0, 0, {}]]], "name": "re_lu"}, {"class_name": "InputLayer", "config": {"dtype": "float32", "batch_input_shape": [null, 512], "name": "rnn_state", "sparse": false}, "inbound_nodes": [], "name": "rnn_state"}, {"class_name": "Dense", "config": {"kernel_initializer": {"class_name": "GlorotUniform", "config": {"dtype": "float32", "seed": null}}, "name": "rnn_r", "kernel_constraint": null, "bias_regularizer": null, "bias_constraint": null, "dtype": "float32", "activation": "linear", "trainable": true, "kernel_regularizer": null, "bias_initializer": {"class_name": "Zeros", "config": {"dtype": "float32"}}, "units": 512, "use_bias": true, "activity_regularizer": null}, "inbound_nodes": [[["re_lu", 0, 0, {}]]], "name": "rnn_r"}, {"class_name": "Dense", "config": {"kernel_initializer": {"class_name": "GlorotUniform", "config": {"dtype": "float32", "seed": null}}, "name": "rnn_rr", "kernel_constraint": null, "bias_regularizer": null, "bias_constraint": null, "dtype": "float32", "activation": "linear", "trainable": true, "kernel_regularizer": null, "bias_initializer": {"class_name": "Zeros", "config": {"dtype": "float32"}}, "units": 512, "use_bias": true, "activity_regularizer": null}, "inbound_nodes": [[["rnn_state", 0, 0, {}]]], "name": "rnn_rr"}, {"class_name": "Dense", "config": {"kernel_initializer": {"class_name": "GlorotUniform", "config": {"dtype": "float32", "seed": null}}, "name": "snpe_pleaser", "kernel_constraint": null, "bias_regularizer": null, "bias_constraint": null, "dtype": "float32", "activation": "linear", "trainable": true, "kernel_regularizer": null, "bias_initializer": {"class_name": "Zeros", "config": {"dtype": "float32"}}, "units": 512, "use_bias": true, "activity_regularizer": null}, "inbound_nodes": [[["rnn_state", 0, 0, {}]]], "name": "snpe_pleaser"}, {"class_name": "Add", "config": {"dtype": "float32", "trainable": true, "name": "add_1"}, "inbound_nodes": [[["rnn_r", 0, 0, {}], ["rnn_rr", 0, 0, {}]]], "name": "add_1"}, {"class_name": "Dense", "config": {"kernel_initializer": {"class_name": "GlorotUniform", "config": {"dtype": "float32", "seed": null}}, "name": "rnn_z", "kernel_constraint": null, "bias_regularizer": null, "bias_constraint": null, "dtype": "float32", "activation": "linear", "trainable": true, "kernel_regularizer": null, "bias_initializer": {"class_name": "Zeros", "config": {"dtype": "float32"}}, "units": 512, "use_bias": true, "activity_regularizer": null}, "inbound_nodes": [[["re_lu", 0, 0, {}]]], "name": "rnn_z"}, {"class_name": "Dense", "config": {"kernel_initializer": {"class_name": "GlorotUniform", "config": {"dtype": "float32", "seed": null}}, "name": "rnn_rz", "kernel_constraint": null, "bias_regularizer": null, "bias_constraint": null, "dtype": "float32", "activation": "linear", "trainable": true, "kernel_regularizer": null, "bias_initializer": {"class_name": "Zeros", "config": {"dtype": "float32"}}, "units": 512, "use_bias": true, "activity_regularizer": null}, "inbound_nodes": [[["rnn_state", 0, 0, {}]]], "name": "rnn_rz"}, {"class_name": "Dense", "config": {"kernel_initializer": {"class_name": "GlorotUniform", "config": {"dtype": "float32", "seed": null}}, "name": "rnn_rh", "kernel_constraint": null, "bias_regularizer": null, "bias_constraint": null, "dtype": "float32", "activation": "linear", "trainable": true, "kernel_regularizer": null, "bias_initializer": {"class_name": "Zeros", "config": {"dtype": "float32"}}, "units": 512, "use_bias": true, "activity_regularizer": null}, "inbound_nodes": [[["snpe_pleaser", 0, 0, {}]]], "name": "rnn_rh"}, {"class_name": "Activation", "config": {"dtype": "float32", "activation": "sigmoid", "trainable": true, "name": "activation"}, "inbound_nodes": [[["add_1", 0, 0, {}]]], "name": "activation"}, {"class_name": "Add", "config": {"dtype": "float32", "trainable": true, "name": "add"}, "inbound_nodes": [[["rnn_z", 0, 0, {}], ["rnn_rz", 0, 0, {}]]], "name": "add"}, {"class_name": "Dense", "config": {"kernel_initializer": {"class_name": "GlorotUniform", "config": {"dtype": "float32", "seed": null}}, "name": "rnn_h", "kernel_constraint": null, "bias_regularizer": null, "bias_constraint": null, "dtype": "float32", "activation": "linear", "trainable": true, "kernel_regularizer": null, "bias_initializer": {"class_name": "Zeros", "config": {"dtype": "float32"}}, "units": 512, "use_bias": true, "activity_regularizer": null}, "inbound_nodes": [[["re_lu", 0, 0, {}]]], "name": "rnn_h"}, {"class_name": "Multiply", "config": {"dtype": "float32", "trainable": true, "name": "multiply"}, "inbound_nodes": [[["rnn_rh", 0, 0, {}], ["activation", 0, 0, {}]]], "name": "multiply"}, {"class_name": "Activation", "config": {"dtype": "float32", "activation": "sigmoid", "trainable": true, "name": "activation_1"}, "inbound_nodes": [[["add", 0, 0, {}]]], "name": "activation_1"}, {"class_name": "Add", "config": {"dtype": "float32", "trainable": true, "name": "add_2"}, "inbound_nodes": [[["rnn_h", 0, 0, {}], ["multiply", 0, 0, {}]]], "name": "add_2"}, {"class_name": "Dense", "config": {"kernel_initializer": {"class_name": "GlorotUniform", "config": {"dtype": "float32", "seed": null}}, "name": "one_minus", "kernel_constraint": null, "bias_regularizer": null, "bias_constraint": null, "dtype": "float32", "activation": "linear", "trainable": true, "kernel_regularizer": null, "bias_initializer": {"class_name": "Zeros", "config": {"dtype": "float32"}}, "units": 512, "use_bias": true, "activity_regularizer": null}, "inbound_nodes": [[["activation_1", 0, 0, {}]]], "name": "one_minus"}, {"class_name": "Activation", "config": {"dtype": "float32", "activation": "tanh", "trainable": true, "name": "activation_2"}, "inbound_nodes": [[["add_2", 0, 0, {}]]], "name": "activation_2"}, {"class_name": "Multiply", "config": {"dtype": "float32", "trainable": true, "name": "multiply_1"}, "inbound_nodes": [[["activation_1", 0, 0, {}], ["snpe_pleaser", 0, 0, {}]]], "name": "multiply_1"}, {"class_name": "Multiply", "config": {"dtype": "float32", "trainable": true, "name": "multiply_2"}, "inbound_nodes": [[["one_minus", 0, 0, {}], ["activation_2", 0, 0, {}]]], "name": "multiply_2"}, {"class_name": "Add", "config": {"dtype": "float32", "trainable": true, "name": "add_3"}, "inbound_nodes": [[["multiply_1", 0, 0, {}], ["multiply_2", 0, 0, {}]]], "name": "add_3"}, {"class_name": "Dense", "config": {"kernel_initializer": {"class_name": "GlorotUniform", "config": {"dtype": "float32", "seed": null}}, "name": "dense_1_path", "kernel_constraint": null, "bias_regularizer": null, "bias_constraint": null, "dtype": "float32", "activation": "linear", "trainable": true, "kernel_regularizer": null, "bias_initializer": {"class_name": "Zeros", "config": {"dtype": "float32"}}, "units": 256, "use_bias": true, "activity_regularizer": null}, "inbound_nodes": [[["add_3", 0, 0, {}]]], "name": "dense_1_path"}, {"class_name": "Dense", "config": {"kernel_initializer": {"class_name": "GlorotUniform", "config": {"dtype": "float32", "seed": null}}, "name": "dense_1_left_lane", "kernel_constraint": null, "bias_regularizer": null, "bias_constraint": null, "dtype": "float32", "activation": "linear", "trainable": true, "kernel_regularizer": null, "bias_initializer": {"class_name": "Zeros", "config": {"dtype": "float32"}}, "units": 256, "use_bias": true, "activity_regularizer": null}, "inbound_nodes": [[["add_3", 0, 0, {}]]], "name": "dense_1_left_lane"}, {"class_name": "Dense", "config": {"kernel_initializer": {"class_name": "GlorotUniform", "config": {"dtype": "float32", "seed": null}}, "name": "dense_1_right_lane", "kernel_constraint": null, "bias_regularizer": null, "bias_constraint": null, "dtype": "float32", "activation": "linear", "trainable": true, "kernel_regularizer": null, "bias_initializer": {"class_name": "Zeros", "config": {"dtype": "float32"}}, "units": 256, "use_bias": true, "activity_regularizer": null}, "inbound_nodes": [[["add_3", 0, 0, {}]]], "name": "dense_1_right_lane"}, {"class_name": "Dense", "config": {"kernel_initializer": {"class_name": "GlorotUniform", "config": {"dtype": "float32", "seed": null}}, "name": "dense_1_lead", "kernel_constraint": null, "bias_regularizer": null, "bias_constraint": null, "dtype": "float32", "activation": "linear", "trainable": true, "kernel_regularizer": null, "bias_initializer": {"class_name": "Zeros", "config": {"dtype": "float32"}}, "units": 256, "use_bias": true, "activity_regularizer": null}, "inbound_nodes": [[["add_3", 0, 0, {}]]], "name": "dense_1_lead"}, {"class_name": "Dense", "config": {"kernel_initializer": {"class_name": "GlorotUniform", "config": {"dtype": "float32", "seed": null}}, "name": "dense_1_long_x", "kernel_constraint": null, "bias_regularizer": null, "bias_constraint": null, "dtype": "float32", "activation": "linear", "trainable": true, "kernel_regularizer": null, "bias_initializer": {"class_name": "Zeros", "config": {"dtype": "float32"}}, "units": 256, "use_bias": true, "activity_regularizer": null}, "inbound_nodes": [[["add_3", 0, 0, {}]]], "name": "dense_1_long_x"}, {"class_name": "Dense", "config": {"kernel_initializer": {"class_name": "GlorotUniform", "config": {"dtype": "float32", "seed": null}}, "name": "dense_1_long_v", "kernel_constraint": null, "bias_regularizer": null, "bias_constraint": null, "dtype": "float32", "activation": "linear", "trainable": true, "kernel_regularizer": null, "bias_initializer": {"class_name": "Zeros", "config": {"dtype": "float32"}}, "units": 256, "use_bias": true, "activity_regularizer": null}, "inbound_nodes": [[["add_3", 0, 0, {}]]], "name": "dense_1_long_v"}, {"class_name": "Dense", "config": {"kernel_initializer": {"class_name": "GlorotUniform", "config": {"dtype": "float32", "seed": null}}, "name": "dense_1_long_a", "kernel_constraint": null, "bias_regularizer": null, "bias_constraint": null, "dtype": "float32", "activation": "linear", "trainable": true, "kernel_regularizer": null, "bias_initializer": {"class_name": "Zeros", "config": {"dtype": "float32"}}, "units": 256, "use_bias": true, "activity_regularizer": null}, "inbound_nodes": [[["add_3", 0, 0, {}]]], "name": "dense_1_long_a"}, {"class_name": "ReLU", "config": {"name": "relu_1_path", "dtype": "float32", "trainable": true, "max_value": null, "threshold": 0.0, "negative_slope": 0.0}, "inbound_nodes": [[["dense_1_path", 0, 0, {}]]], "name": "relu_1_path"}, {"class_name": "ReLU", "config": {"name": "relu_1_left_lane", "dtype": "float32", "trainable": true, "max_value": null, "threshold": 0.0, "negative_slope": 0.0}, "inbound_nodes": [[["dense_1_left_lane", 0, 0, {}]]], "name": "relu_1_left_lane"}, {"class_name": "ReLU", "config": {"name": "relu_1_right_lane", "dtype": "float32", "trainable": true, "max_value": null, "threshold": 0.0, "negative_slope": 0.0}, "inbound_nodes": [[["dense_1_right_lane", 0, 0, {}]]], "name": "relu_1_right_lane"}, {"class_name": "ReLU", "config": {"name": "relu_1_lead", "dtype": "float32", "trainable": true, "max_value": null, "threshold": 0.0, "negative_slope": 0.0}, "inbound_nodes": [[["dense_1_lead", 0, 0, {}]]], "name": "relu_1_lead"}, {"class_name": "ReLU", "config": {"name": "relu_1_long_x", "dtype": "float32", "trainable": true, "max_value": null, "threshold": 0.0, "negative_slope": 0.0}, "inbound_nodes": [[["dense_1_long_x", 0, 0, {}]]], "name": "relu_1_long_x"}, {"class_name": "ReLU", "config": {"name": "relu_1_long_v", "dtype": "float32", "trainable": true, "max_value": null, "threshold": 0.0, "negative_slope": 0.0}, "inbound_nodes": [[["dense_1_long_v", 0, 0, {}]]], "name": "relu_1_long_v"}, {"class_name": "ReLU", "config": {"name": "relu_1_long_a", "dtype": "float32", "trainable": true, "max_value": null, "threshold": 0.0, "negative_slope": 0.0}, "inbound_nodes": [[["dense_1_long_a", 0, 0, {}]]], "name": "relu_1_long_a"}, {"class_name": "Dense", "config": {"kernel_initializer": {"class_name": "GlorotUniform", "config": {"dtype": "float32", "seed": null}}, "name": "dense_2_path", "kernel_constraint": null, "bias_regularizer": null, "bias_constraint": null, "dtype": "float32", "activation": "linear", "trainable": true, "kernel_regularizer": null, "bias_initializer": {"class_name": "Zeros", "config": {"dtype": "float32"}}, "units": 256, "use_bias": true, "activity_regularizer": null}, "inbound_nodes": [[["relu_1_path", 0, 0, {}]]], "name": "dense_2_path"}, {"class_name": "Dense", "config": {"kernel_initializer": {"class_name": "GlorotUniform", "config": {"dtype": "float32", "seed": null}}, "name": "dense_2_left_lane", "kernel_constraint": null, "bias_regularizer": null, "bias_constraint": null, "dtype": "float32", "activation": "linear", "trainable": true, "kernel_regularizer": null, "bias_initializer": {"class_name": "Zeros", "config": {"dtype": "float32"}}, "units": 256, "use_bias": true, "activity_regularizer": null}, "inbound_nodes": [[["relu_1_left_lane", 0, 0, {}]]], "name": "dense_2_left_lane"}, {"class_name": "Dense", "config": {"kernel_initializer": {"class_name": "GlorotUniform", "config": {"dtype": "float32", "seed": null}}, "name": "dense_2_right_lane", "kernel_constraint": null, "bias_regularizer": null, "bias_constraint": null, "dtype": "float32", "activation": "linear", "trainable": true, "kernel_regularizer": null, "bias_initializer": {"class_name": "Zeros", "config": {"dtype": "float32"}}, "units": 256, "use_bias": true, "activity_regularizer": null}, "inbound_nodes": [[["relu_1_right_lane", 0, 0, {}]]], "name": "dense_2_right_lane"}, {"class_name": "Dense", "config": {"kernel_initializer": {"class_name": "GlorotUniform", "config": {"dtype": "float32", "seed": null}}, "name": "dense_2_lead", "kernel_constraint": null, "bias_regularizer": null, "bias_constraint": null, "dtype": "float32", "activation": "linear", "trainable": true, "kernel_regularizer": null, "bias_initializer": {"class_name": "Zeros", "config": {"dtype": "float32"}}, "units": 256, "use_bias": true, "activity_regularizer": null}, "inbound_nodes": [[["relu_1_lead", 0, 0, {}]]], "name": "dense_2_lead"}, {"class_name": "Dense", "config": {"kernel_initializer": {"class_name": "GlorotUniform", "config": {"dtype": "float32", "seed": null}}, "name": "dense_2_long_x", "kernel_constraint": null, "bias_regularizer": null, "bias_constraint": null, "dtype": "float32", "activation": "linear", "trainable": true, "kernel_regularizer": null, "bias_initializer": {"class_name": "Zeros", "config": {"dtype": "float32"}}, "units": 256, "use_bias": true, "activity_regularizer": null}, "inbound_nodes": [[["relu_1_long_x", 0, 0, {}]]], "name": "dense_2_long_x"}, {"class_name": "Dense", "config": {"kernel_initializer": {"class_name": "GlorotUniform", "config": {"dtype": "float32", "seed": null}}, "name": "dense_2_long_v", "kernel_constraint": null, "bias_regularizer": null, "bias_constraint": null, "dtype": "float32", "activation": "linear", "trainable": true, "kernel_regularizer": null, "bias_initializer": {"class_name": "Zeros", "config": {"dtype": "float32"}}, "units": 256, "use_bias": true, "activity_regularizer": null}, "inbound_nodes": [[["relu_1_long_v", 0, 0, {}]]], "name": "dense_2_long_v"}, {"class_name": "Dense", "config": {"kernel_initializer": {"class_name": "GlorotUniform", "config": {"dtype": "float32", "seed": null}}, "name": "dense_2_long_a", "kernel_constraint": null, "bias_regularizer": null, "bias_constraint": null, "dtype": "float32", "activation": "linear", "trainable": true, "kernel_regularizer": null, "bias_initializer": {"class_name": "Zeros", "config": {"dtype": "float32"}}, "units": 256, "use_bias": true, "activity_regularizer": null}, "inbound_nodes": [[["relu_1_long_a", 0, 0, {}]]], "name": "dense_2_long_a"}, {"class_name": "ReLU", "config": {"name": "relu_2_path", "dtype": "float32", "trainable": true, "max_value": null, "threshold": 0.0, "negative_slope": 0.0}, "inbound_nodes": [[["dense_2_path", 0, 0, {}]]], "name": "relu_2_path"}, {"class_name": "ReLU", "config": {"name": "relu_2_left_lane", "dtype": "float32", "trainable": true, "max_value": null, "threshold": 0.0, "negative_slope": 0.0}, "inbound_nodes": [[["dense_2_left_lane", 0, 0, {}]]], "name": "relu_2_left_lane"}, {"class_name": "ReLU", "config": {"name": "relu_2_right_lane", "dtype": "float32", "trainable": true, "max_value": null, "threshold": 0.0, "negative_slope": 0.0}, "inbound_nodes": [[["dense_2_right_lane", 0, 0, {}]]], "name": "relu_2_right_lane"}, {"class_name": "ReLU", "config": {"name": "relu_2_lead", "dtype": "float32", "trainable": true, "max_value": null, "threshold": 0.0, "negative_slope": 0.0}, "inbound_nodes": [[["dense_2_lead", 0, 0, {}]]], "name": "relu_2_lead"}, {"class_name": "ReLU", "config": {"name": "relu_2_long_x", "dtype": "float32", "trainable": true, "max_value": null, "threshold": 0.0, "negative_slope": 0.0}, "inbound_nodes": [[["dense_2_long_x", 0, 0, {}]]], "name": "relu_2_long_x"}, {"class_name": "ReLU", "config": {"name": "relu_2_long_v", "dtype": "float32", "trainable": true, "max_value": null, "threshold": 0.0, "negative_slope": 0.0}, "inbound_nodes": [[["dense_2_long_v", 0, 0, {}]]], "name": "relu_2_long_v"}, {"class_name": "ReLU", "config": {"name": "relu_2_long_a", "dtype": "float32", "trainable": true, "max_value": null, "threshold": 0.0, "negative_slope": 0.0}, "inbound_nodes": [[["dense_2_long_a", 0, 0, {}]]], "name": "relu_2_long_a"}, {"class_name": "Dense", "config": {"kernel_initializer": {"class_name": "GlorotUniform", "config": {"dtype": "float32", "seed": null}}, "name": "meta_dense_1", "kernel_constraint": null, "bias_regularizer": null, "bias_constraint": null, "dtype": "float32", "activation": "linear", "trainable": true, "kernel_regularizer": null, "bias_initializer": {"class_name": "Zeros", "config": {"dtype": "float32"}}, "units": 256, "use_bias": true, "activity_regularizer": null}, "inbound_nodes": [[["vision_features", 0, 0, {}]]], "name": "meta_dense_1"}, {"class_name": "Dense", "config": {"kernel_initializer": {"class_name": "GlorotUniform", "config": {"dtype": "float32", "seed": null}}, "name": "dense", "kernel_constraint": null, "bias_regularizer": null, "bias_constraint": null, "dtype": "float32", "activation": "linear", "trainable": true, "kernel_regularizer": null, "bias_initializer": {"class_name": "Zeros", "config": {"dtype": "float32"}}, "units": 64, "use_bias": true, "activity_regularizer": null}, "inbound_nodes": [[["vision_features", 0, 0, {}]]], "name": "dense"}, {"class_name": "Dense", "config": {"kernel_initializer": {"class_name": "GlorotUniform", "config": {"dtype": "float32", "seed": null}}, "name": "dense_3_path", "kernel_constraint": null, "bias_regularizer": null, "bias_constraint": null, "dtype": "float32", "activation": "linear", "trainable": true, "kernel_regularizer": null, "bias_initializer": {"class_name": "Zeros", "config": {"dtype": "float32"}}, "units": 256, "use_bias": true, "activity_regularizer": null}, "inbound_nodes": [[["relu_2_path", 0, 0, {}]]], "name": "dense_3_path"}, {"class_name": "Dense", "config": {"kernel_initializer": {"class_name": "GlorotUniform", "config": {"dtype": "float32", "seed": null}}, "name": "dense_3_left_lane", "kernel_constraint": null, "bias_regularizer": null, "bias_constraint": null, "dtype": "float32", "activation": "linear", "trainable": true, "kernel_regularizer": null, "bias_initializer": {"class_name": "Zeros", "config": {"dtype": "float32"}}, "units": 256, "use_bias": true, "activity_regularizer": null}, "inbound_nodes": [[["relu_2_left_lane", 0, 0, {}]]], "name": "dense_3_left_lane"}, {"class_name": "Dense", "config": {"kernel_initializer": {"class_name": "GlorotUniform", "config": {"dtype": "float32", "seed": null}}, "name": "dense_3_right_lane", "kernel_constraint": null, "bias_regularizer": null, "bias_constraint": null, "dtype": "float32", "activation": "linear", "trainable": true, "kernel_regularizer": null, "bias_initializer": {"class_name": "Zeros", "config": {"dtype": "float32"}}, "units": 256, "use_bias": true, "activity_regularizer": null}, "inbound_nodes": [[["relu_2_right_lane", 0, 0, {}]]], "name": "dense_3_right_lane"}, {"class_name": "Dense", "config": {"kernel_initializer": {"class_name": "GlorotUniform", "config": {"dtype": "float32", "seed": null}}, "name": "dense_3_lead", "kernel_constraint": null, "bias_regularizer": null, "bias_constraint": null, "dtype": "float32", "activation": "linear", "trainable": true, "kernel_regularizer": null, "bias_initializer": {"class_name": "Zeros", "config": {"dtype": "float32"}}, "units": 256, "use_bias": true, "activity_regularizer": null}, "inbound_nodes": [[["relu_2_lead", 0, 0, {}]]], "name": "dense_3_lead"}, {"class_name": "Dense", "config": {"kernel_initializer": {"class_name": "GlorotUniform", "config": {"dtype": "float32", "seed": null}}, "name": "dense_3_long_x", "kernel_constraint": null, "bias_regularizer": null, "bias_constraint": null, "dtype": "float32", "activation": "linear", "trainable": true, "kernel_regularizer": null, "bias_initializer": {"class_name": "Zeros", "config": {"dtype": "float32"}}, "units": 256, "use_bias": true, "activity_regularizer": null}, "inbound_nodes": [[["relu_2_long_x", 0, 0, {}]]], "name": "dense_3_long_x"}, {"class_name": "Dense", "config": {"kernel_initializer": {"class_name": "GlorotUniform", "config": {"dtype": "float32", "seed": null}}, "name": "dense_3_long_v", "kernel_constraint": null, "bias_regularizer": null, "bias_constraint": null, "dtype": "float32", "activation": "linear", "trainable": true, "kernel_regularizer": null, "bias_initializer": {"class_name": "Zeros", "config": {"dtype": "float32"}}, "units": 256, "use_bias": true, "activity_regularizer": null}, "inbound_nodes": [[["relu_2_long_v", 0, 0, {}]]], "name": "dense_3_long_v"}, {"class_name": "Dense", "config": {"kernel_initializer": {"class_name": "GlorotUniform", "config": {"dtype": "float32", "seed": null}}, "name": "dense_3_long_a", "kernel_constraint": null, "bias_regularizer": null, "bias_constraint": null, "dtype": "float32", "activation": "linear", "trainable": true, "kernel_regularizer": null, "bias_initializer": {"class_name": "Zeros", "config": {"dtype": "float32"}}, "units": 256, "use_bias": true, "activity_regularizer": null}, "inbound_nodes": [[["relu_2_long_a", 0, 0, {}]]], "name": "dense_3_long_a"}, {"class_name": "ReLU", "config": {"name": "meta_relu_1", "dtype": "float32", "trainable": true, "max_value": null, "threshold": 0.0, "negative_slope": 0.0}, "inbound_nodes": [[["meta_dense_1", 0, 0, {}]]], "name": "meta_relu_1"}, {"class_name": "ELU", "config": {"dtype": "float32", "trainable": true, "name": "elu_1", "alpha": 1.0}, "inbound_nodes": [[["dense", 0, 0, {}]]], "name": "elu_1"}, {"class_name": "ReLU", "config": {"name": "relu_3_path", "dtype": "float32", "trainable": true, "max_value": null, "threshold": 0.0, "negative_slope": 0.0}, "inbound_nodes": [[["dense_3_path", 0, 0, {}]]], "name": "relu_3_path"}, {"class_name": "ReLU", "config": {"name": "relu_3_left_lane", "dtype": "float32", "trainable": true, "max_value": null, "threshold": 0.0, "negative_slope": 0.0}, "inbound_nodes": [[["dense_3_left_lane", 0, 0, {}]]], "name": "relu_3_left_lane"}, {"class_name": "ReLU", "config": {"name": "relu_3_right_lane", "dtype": "float32", "trainable": true, "max_value": null, "threshold": 0.0, "negative_slope": 0.0}, "inbound_nodes": [[["dense_3_right_lane", 0, 0, {}]]], "name": "relu_3_right_lane"}, {"class_name": "ReLU", "config": {"name": "relu_3_lead", "dtype": "float32", "trainable": true, "max_value": null, "threshold": 0.0, "negative_slope": 0.0}, "inbound_nodes": [[["dense_3_lead", 0, 0, {}]]], "name": "relu_3_lead"}, {"class_name": "ReLU", "config": {"name": "relu_3_long_x", "dtype": "float32", "trainable": true, "max_value": null, "threshold": 0.0, "negative_slope": 0.0}, "inbound_nodes": [[["dense_3_long_x", 0, 0, {}]]], "name": "relu_3_long_x"}, {"class_name": "ReLU", "config": {"name": "relu_3_long_v", "dtype": "float32", "trainable": true, "max_value": null, "threshold": 0.0, "negative_slope": 0.0}, "inbound_nodes": [[["dense_3_long_v", 0, 0, {}]]], "name": "relu_3_long_v"}, {"class_name": "ReLU", "config": {"name": "relu_3_long_a", "dtype": "float32", "trainable": true, "max_value": null, "threshold": 0.0, "negative_slope": 0.0}, "inbound_nodes": [[["dense_3_long_a", 0, 0, {}]]], "name": "relu_3_long_a"}, {"class_name": "Dense", "config": {"kernel_initializer": {"class_name": "GlorotUniform", "config": {"dtype": "float32", "seed": null}}, "name": "dense_1_desire_state", "kernel_constraint": null, "bias_regularizer": null, "bias_constraint": null, "dtype": "float32", "activation": "linear", "trainable": true, "kernel_regularizer": null, "bias_initializer": {"class_name": "Zeros", "config": {"dtype": "float32"}}, "units": 128, "use_bias": true, "activity_regularizer": null}, "inbound_nodes": [[["add_3", 0, 0, {}]]], "name": "dense_1_desire_state"}, {"class_name": "Dense", "config": {"kernel_initializer": {"class_name": "GlorotUniform", "config": {"dtype": "float32", "seed": null}}, "name": "desire_final_dense", "kernel_constraint": null, "bias_regularizer": null, "bias_constraint": null, "dtype": "float32", "activation": "linear", "trainable": true, "kernel_regularizer": null, "bias_initializer": {"class_name": "Zeros", "config": {"dtype": "float32"}}, "units": 32, "use_bias": true, "activity_regularizer": null}, "inbound_nodes": [[["meta_relu_1", 0, 0, {}]]], "name": "desire_final_dense"}, {"class_name": "Dense", "config": {"kernel_initializer": {"class_name": "GlorotUniform", "config": {"dtype": "float32", "seed": null}}, "name": "dense_1", "kernel_constraint": null, "bias_regularizer": null, "bias_constraint": null, "dtype": "float32", "activation": "linear", "trainable": true, "kernel_regularizer": null, "bias_initializer": {"class_name": "Zeros", "config": {"dtype": "float32"}}, "units": 32, "use_bias": true, "activity_regularizer": null}, "inbound_nodes": [[["elu_1", 0, 0, {}]]], "name": "dense_1"}, {"class_name": "Dense", "config": {"kernel_initializer": {"class_name": "GlorotUniform", "config": {"dtype": "float32", "seed": null}}, "name": "dense_final_path", "kernel_constraint": null, "bias_regularizer": null, "bias_constraint": null, "dtype": "float32", "activation": "linear", "trainable": true, "kernel_regularizer": null, "bias_initializer": {"class_name": "Zeros", "config": {"dtype": "float32"}}, "units": 128, "use_bias": true, "activity_regularizer": null}, "inbound_nodes": [[["relu_3_path", 0, 0, {}]]], "name": "dense_final_path"}, {"class_name": "Dense", "config": {"kernel_initializer": {"class_name": "GlorotUniform", "config": {"dtype": "float32", "seed": null}}, "name": "dense_final_left_lane", "kernel_constraint": null, "bias_regularizer": null, "bias_constraint": null, "dtype": "float32", "activation": "linear", "trainable": true, "kernel_regularizer": null, "bias_initializer": {"class_name": "Zeros", "config": {"dtype": "float32"}}, "units": 128, "use_bias": true, "activity_regularizer": null}, "inbound_nodes": [[["relu_3_left_lane", 0, 0, {}]]], "name": "dense_final_left_lane"}, {"class_name": "Dense", "config": {"kernel_initializer": {"class_name": "GlorotUniform", "config": {"dtype": "float32", "seed": null}}, "name": "dense_final_right_lane", "kernel_constraint": null, "bias_regularizer": null, "bias_constraint": null, "dtype": "float32", "activation": "linear", "trainable": true, "kernel_regularizer": null, "bias_initializer": {"class_name": "Zeros", "config": {"dtype": "float32"}}, "units": 128, "use_bias": true, "activity_regularizer": null}, "inbound_nodes": [[["relu_3_right_lane", 0, 0, {}]]], "name": "dense_final_right_lane"}, {"class_name": "Dense", "config": {"kernel_initializer": {"class_name": "GlorotUniform", "config": {"dtype": "float32", "seed": null}}, "name": "dense_final_lead", "kernel_constraint": null, "bias_regularizer": null, "bias_constraint": null, "dtype": "float32", "activation": "linear", "trainable": true, "kernel_regularizer": null, "bias_initializer": {"class_name": "Zeros", "config": {"dtype": "float32"}}, "units": 128, "use_bias": true, "activity_regularizer": null}, "inbound_nodes": [[["relu_3_lead", 0, 0, {}]]], "name": "dense_final_lead"}, {"class_name": "Dense", "config": {"kernel_initializer": {"class_name": "GlorotUniform", "config": {"dtype": "float32", "seed": null}}, "name": "dense_final_long_x", "kernel_constraint": null, "bias_regularizer": null, "bias_constraint": null, "dtype": "float32", "activation": "linear", "trainable": true, "kernel_regularizer": null, "bias_initializer": {"class_name": "Zeros", "config": {"dtype": "float32"}}, "units": 128, "use_bias": true, "activity_regularizer": null}, "inbound_nodes": [[["relu_3_long_x", 0, 0, {}]]], "name": "dense_final_long_x"}, {"class_name": "Dense", "config": {"kernel_initializer": {"class_name": "GlorotUniform", "config": {"dtype": "float32", "seed": null}}, "name": "dense_final_long_v", "kernel_constraint": null, "bias_regularizer": null, "bias_constraint": null, "dtype": "float32", "activation": "linear", "trainable": true, "kernel_regularizer": null, "bias_initializer": {"class_name": "Zeros", "config": {"dtype": "float32"}}, "units": 128, "use_bias": true, "activity_regularizer": null}, "inbound_nodes": [[["relu_3_long_v", 0, 0, {}]]], "name": "dense_final_long_v"}, {"class_name": "Dense", "config": {"kernel_initializer": {"class_name": "GlorotUniform", "config": {"dtype": "float32", "seed": null}}, "name": "dense_final_long_a", "kernel_constraint": null, "bias_regularizer": null, "bias_constraint": null, "dtype": "float32", "activation": "linear", "trainable": true, "kernel_regularizer": null, "bias_initializer": {"class_name": "Zeros", "config": {"dtype": "float32"}}, "units": 128, "use_bias": true, "activity_regularizer": null}, "inbound_nodes": [[["relu_3_long_a", 0, 0, {}]]], "name": "dense_final_long_a"}, {"class_name": "ReLU", "config": {"name": "relu_1_desire_state", "dtype": "float32", "trainable": true, "max_value": null, "threshold": 0.0, "negative_slope": 0.0}, "inbound_nodes": [[["dense_1_desire_state", 0, 0, {}]]], "name": "relu_1_desire_state"}, {"class_name": "Reshape", "config": {"dtype": "float32", "trainable": true, "name": "desire_reshape", "target_shape": [4, 8]}, "inbound_nodes": [[["desire_final_dense", 0, 0, {}]]], "name": "desire_reshape"}, {"class_name": "ELU", "config": {"dtype": "float32", "trainable": true, "name": "elu_2", "alpha": 1.0}, "inbound_nodes": [[["dense_1", 0, 0, {}]]], "name": "elu_2"}, {"class_name": "ReLU", "config": {"name": "relu_final_path", "dtype": "float32", "trainable": true, "max_value": null, "threshold": 0.0, "negative_slope": 0.0}, "inbound_nodes": [[["dense_final_path", 0, 0, {}]]], "name": "relu_final_path"}, {"class_name": "ReLU", "config": {"name": "relu_final_left_lane", "dtype": "float32", "trainable": true, "max_value": null, "threshold": 0.0, "negative_slope": 0.0}, "inbound_nodes": [[["dense_final_left_lane", 0, 0, {}]]], "name": "relu_final_left_lane"}, {"class_name": "ReLU", "config": {"name": "relu_final_right_lane", "dtype": "float32", "trainable": true, "max_value": null, "threshold": 0.0, "negative_slope": 0.0}, "inbound_nodes": [[["dense_final_right_lane", 0, 0, {}]]], "name": "relu_final_right_lane"}, {"class_name": "ReLU", "config": {"name": "relu_final_lead", "dtype": "float32", "trainable": true, "max_value": null, "threshold": 0.0, "negative_slope": 0.0}, "inbound_nodes": [[["dense_final_lead", 0, 0, {}]]], "name": "relu_final_lead"}, {"class_name": "ReLU", "config": {"name": "relu_final_long_x", "dtype": "float32", "trainable": true, "max_value": null, "threshold": 0.0, "negative_slope": 0.0}, "inbound_nodes": [[["dense_final_long_x", 0, 0, {}]]], "name": "relu_final_long_x"}, {"class_name": "ReLU", "config": {"name": "relu_final_long_v", "dtype": "float32", "trainable": true, "max_value": null, "threshold": 0.0, "negative_slope": 0.0}, "inbound_nodes": [[["dense_final_long_v", 0, 0, {}]]], "name": "relu_final_long_v"}, {"class_name": "ReLU", "config": {"name": "relu_final_long_a", "dtype": "float32", "trainable": true, "max_value": null, "threshold": 0.0, "negative_slope": 0.0}, "inbound_nodes": [[["dense_final_long_a", 0, 0, {}]]], "name": "relu_final_long_a"}, {"class_name": "Dense", "config": {"kernel_initializer": {"class_name": "GlorotUniform", "config": {"dtype": "float32", "seed": null}}, "name": "final_desire_state", "kernel_constraint": null, "bias_regularizer": null, "bias_constraint": null, "dtype": "float32", "activation": "linear", "trainable": true, "kernel_regularizer": null, "bias_initializer": {"class_name": "Zeros", "config": {"dtype": "float32"}}, "units": 8, "use_bias": true, "activity_regularizer": null}, "inbound_nodes": [[["relu_1_desire_state", 0, 0, {}]]], "name": "final_desire_state"}, {"class_name": "Softmax", "config": {"dtype": "float32", "trainable": true, "name": "desire_pred", "axis": -1}, "inbound_nodes": [[["desire_reshape", 0, 0, {}]]], "name": "desire_pred"}, {"class_name": "Dense", "config": {"kernel_initializer": {"class_name": "GlorotUniform", "config": {"dtype": "float32", "seed": null}}, "name": "dense_2", "kernel_constraint": null, "bias_regularizer": null, "bias_constraint": null, "dtype": "float32", "activation": "linear", "trainable": true, "kernel_regularizer": null, "bias_initializer": {"class_name": "Zeros", "config": {"dtype": "float32"}}, "units": 12, "use_bias": true, "activity_regularizer": null}, "inbound_nodes": [[["elu_2", 0, 0, {}]]], "name": "dense_2"}, {"class_name": "Dense", "config": {"kernel_initializer": {"class_name": "GlorotUniform", "config": {"dtype": "float32", "seed": null}}, "name": "path", "kernel_constraint": null, "bias_regularizer": null, "bias_constraint": null, "dtype": "float32", "activation": "linear", "trainable": true, "kernel_regularizer": null, "bias_initializer": {"class_name": "Zeros", "config": {"dtype": "float32"}}, "units": 385, "use_bias": true, "activity_regularizer": null}, "inbound_nodes": [[["relu_final_path", 0, 0, {}]]], "name": "path"}, {"class_name": "Dense", "config": {"kernel_initializer": {"class_name": "GlorotUniform", "config": {"dtype": "float32", "seed": null}}, "name": "left_lane", "kernel_constraint": null, "bias_regularizer": null, "bias_constraint": null, "dtype": "float32", "activation": "linear", "trainable": true, "kernel_regularizer": null, "bias_initializer": {"class_name": "Zeros", "config": {"dtype": "float32"}}, "units": 386, "use_bias": true, "activity_regularizer": null}, "inbound_nodes": [[["relu_final_left_lane", 0, 0, {}]]], "name": "left_lane"}, {"class_name": "Dense", "config": {"kernel_initializer": {"class_name": "GlorotUniform", "config": {"dtype": "float32", "seed": null}}, "name": "right_lane", "kernel_constraint": null, "bias_regularizer": null, "bias_constraint": null, "dtype": "float32", "activation": "linear", "trainable": true, "kernel_regularizer": null, "bias_initializer": {"class_name": "Zeros", "config": {"dtype": "float32"}}, "units": 386, "use_bias": true, "activity_regularizer": null}, "inbound_nodes": [[["relu_final_right_lane", 0, 0, {}]]], "name": "right_lane"}, {"class_name": "Dense", "config": {"kernel_initializer": {"class_name": "GlorotUniform", "config": {"dtype": "float32", "seed": null}}, "name": "lead", "kernel_constraint": null, "bias_regularizer": null, "bias_constraint": null, "dtype": "float32", "activation": "linear", "trainable": true, "kernel_regularizer": null, "bias_initializer": {"class_name": "Zeros", "config": {"dtype": "float32"}}, "units": 58, "use_bias": true, "activity_regularizer": null}, "inbound_nodes": [[["relu_final_lead", 0, 0, {}]]], "name": "lead"}, {"class_name": "Dense", "config": {"kernel_initializer": {"class_name": "GlorotUniform", "config": {"dtype": "float32", "seed": null}}, "name": "long_x", "kernel_constraint": null, "bias_regularizer": null, "bias_constraint": null, "dtype": "float32", "activation": "linear", "trainable": true, "kernel_regularizer": null, "bias_initializer": {"class_name": "Zeros", "config": {"dtype": "float32"}}, "units": 200, "use_bias": true, "activity_regularizer": null}, "inbound_nodes": [[["relu_final_long_x", 0, 0, {}]]], "name": "long_x"}, {"class_name": "Dense", "config": {"kernel_initializer": {"class_name": "GlorotUniform", "config": {"dtype": "float32", "seed": null}}, "name": "long_v", "kernel_constraint": null, "bias_regularizer": null, "bias_constraint": null, "dtype": "float32", "activation": "linear", "trainable": true, "kernel_regularizer": null, "bias_initializer": {"class_name": "Zeros", "config": {"dtype": "float32"}}, "units": 200, "use_bias": true, "activity_regularizer": null}, "inbound_nodes": [[["relu_final_long_v", 0, 0, {}]]], "name": "long_v"}, {"class_name": "Dense", "config": {"kernel_initializer": {"class_name": "GlorotUniform", "config": {"dtype": "float32", "seed": null}}, "name": "long_a", "kernel_constraint": null, "bias_regularizer": null, "bias_constraint": null, "dtype": "float32", "activation": "linear", "trainable": true, "kernel_regularizer": null, "bias_initializer": {"class_name": "Zeros", "config": {"dtype": "float32"}}, "units": 200, "use_bias": true, "activity_regularizer": null}, "inbound_nodes": [[["relu_final_long_a", 0, 0, {}]]], "name": "long_a"}, {"class_name": "Softmax", "config": {"dtype": "float32", "trainable": true, "name": "desire_state", "axis": -1}, "inbound_nodes": [[["final_desire_state", 0, 0, {}]]], "name": "desire_state"}, {"class_name": "Dense", "config": {"kernel_initializer": {"class_name": "GlorotUniform", "config": {"dtype": "float32", "seed": null}}, "name": "meta", "kernel_constraint": null, "bias_regularizer": null, "bias_constraint": null, "dtype": "float32", "activation": "sigmoid", "trainable": true, "kernel_regularizer": null, "bias_initializer": {"class_name": "Zeros", "config": {"dtype": "float32"}}, "units": 4, "use_bias": true, "activity_regularizer": null}, "inbound_nodes": [[["meta_relu_1", 0, 0, {}]]], "name": "meta"}, {"class_name": "Flatten", "config": {"dtype": "float32", "trainable": true, "name": "flatten", "data_format": "channels_last"}, "inbound_nodes": [[["desire_pred", 0, 0, {}]]], "name": "flatten"}, {"class_name": "Activation", "config": {"dtype": "float32", "activation": "linear", "trainable": true, "name": "pose"}, "inbound_nodes": [[["dense_2", 0, 0, {}]]], "name": "pose"}], "input_layers": [["input_imgs", 0, 0], ["desire", 0, 0], ["traffic_convention", 0, 0], ["rnn_state", 0, 0]], "output_layers": [["path", 0, 0], ["left_lane", 0, 0], ["right_lane", 0, 0], ["lead", 0, 0], ["long_x", 0, 0], ["long_v", 0, 0], ["long_a", 0, 0], ["desire_state", 0, 0], ["meta", 0, 0], ["flatten", 0, 0], ["pose", 0, 0], ["add_3", 0, 0]], "name": "model"}}}, "weightsManifest": [{"paths": ["group1-shard1of13.bin", "group1-shard2of13.bin", "group1-shard3of13.bin", "group1-shard4of13.bin", "group1-shard5of13.bin", "group1-shard6of13.bin", "group1-shard7of13.bin", "group1-shard8of13.bin", "group1-shard9of13.bin", "group1-shard10of13.bin", "group1-shard11of13.bin", "group1-shard12of13.bin", "group1-shard13of13.bin"], "weights": [{"name": "batch_normalization/gamma", "shape": [32], "dtype": "float32"}, {"name": "batch_normalization/beta", "shape": [32], "dtype": "float32"}, {"name": "batch_normalization/moving_mean", "shape": [32], "dtype": "float32"}, {"name": "batch_normalization/moving_variance", "shape": [32], "dtype": "float32"}, {"name": "conv2d/kernel", "shape": [1, 1, 1408, 32], "dtype": "float32"}, {"name": "conv2d/bias", "shape": [32], "dtype": "float32"}, {"name": "dense/kernel", "shape": [1024, 64], "dtype": "float32"}, {"name": "dense/bias", "shape": [64], "dtype": "float32"}, {"name": "dense_1/kernel", "shape": [64, 32], "dtype": "float32"}, {"name": "dense_1/bias", "shape": [32], "dtype": "float32"}, {"name": "dense_1_desire_state/kernel", "shape": [512, 128], "dtype": "float32"}, {"name": "dense_1_desire_state/bias", "shape": [128], "dtype": "float32"}, {"name": "dense_1_lead/kernel", "shape": [512, 256], "dtype": "float32"}, {"name": "dense_1_lead/bias", "shape": [256], "dtype": "float32"}, {"name": "dense_1_left_lane/kernel", "shape": [512, 256], "dtype": "float32"}, {"name": "dense_1_left_lane/bias", "shape": [256], "dtype": "float32"}, {"name": "dense_1_long_a/kernel", "shape": [512, 256], "dtype": "float32"}, {"name": "dense_1_long_a/bias", "shape": [256], "dtype": "float32"}, {"name": "dense_1_long_v/kernel", "shape": [512, 256], "dtype": "float32"}, {"name": "dense_1_long_v/bias", "shape": [256], "dtype": "float32"}, {"name": "dense_1_long_x/kernel", "shape": [512, 256], "dtype": "float32"}, {"name": "dense_1_long_x/bias", "shape": [256], "dtype": "float32"}, {"name": "dense_1_path/kernel", "shape": [512, 256], "dtype": "float32"}, {"name": "dense_1_path/bias", "shape": [256], "dtype": "float32"}, {"name": "dense_1_right_lane/kernel", "shape": [512, 256], "dtype": "float32"}, {"name": "dense_1_right_lane/bias", "shape": [256], "dtype": "float32"}, {"name": "dense_2/kernel", "shape": [32, 12], "dtype": "float32"}, {"name": "dense_2/bias", "shape": [12], "dtype": "float32"}, {"name": "dense_2_lead/kernel", "shape": [256, 256], "dtype": "float32"}, {"name": "dense_2_lead/bias", "shape": [256], "dtype": "float32"}, {"name": "dense_2_left_lane/kernel", "shape": [256, 256], "dtype": "float32"}, {"name": "dense_2_left_lane/bias", "shape": [256], "dtype": "float32"}, {"name": "dense_2_long_a/kernel", "shape": [256, 256], "dtype": "float32"}, {"name": "dense_2_long_a/bias", "shape": [256], "dtype": "float32"}, {"name": "dense_2_long_v/kernel", "shape": [256, 256], "dtype": "float32"}, {"name": "dense_2_long_v/bias", "shape": [256], "dtype": "float32"}, {"name": "dense_2_long_x/kernel", "shape": [256, 256], "dtype": "float32"}, {"name": "dense_2_long_x/bias", "shape": [256], "dtype": "float32"}, {"name": "dense_2_path/kernel", "shape": [256, 256], "dtype": "float32"}, {"name": "dense_2_path/bias", "shape": [256], "dtype": "float32"}, {"name": "dense_2_right_lane/kernel", "shape": [256, 256], "dtype": "float32"}, {"name": "dense_2_right_lane/bias", "shape": [256], "dtype": "float32"}, {"name": "dense_3_lead/kernel", "shape": [256, 256], "dtype": "float32"}, {"name": "dense_3_lead/bias", "shape": [256], "dtype": "float32"}, {"name": "dense_3_left_lane/kernel", "shape": [256, 256], "dtype": "float32"}, {"name": "dense_3_left_lane/bias", "shape": [256], "dtype": "float32"}, {"name": "dense_3_long_a/kernel", "shape": [256, 256], "dtype": "float32"}, {"name": "dense_3_long_a/bias", "shape": [256], "dtype": "float32"}, {"name": "dense_3_long_v/kernel", "shape": [256, 256], "dtype": "float32"}, {"name": "dense_3_long_v/bias", "shape": [256], "dtype": "float32"}, {"name": "dense_3_long_x/kernel", "shape": [256, 256], "dtype": "float32"}, {"name": "dense_3_long_x/bias", "shape": [256], "dtype": "float32"}, {"name": "dense_3_path/kernel", "shape": [256, 256], "dtype": "float32"}, {"name": "dense_3_path/bias", "shape": [256], "dtype": "float32"}, {"name": "dense_3_right_lane/kernel", "shape": [256, 256], "dtype": "float32"}, {"name": "dense_3_right_lane/bias", "shape": [256], "dtype": "float32"}, {"name": "dense_final_lead/kernel", "shape": [256, 128], "dtype": "float32"}, {"name": "dense_final_lead/bias", "shape": [128], "dtype": "float32"}, {"name": "dense_final_left_lane/kernel", "shape": [256, 128], "dtype": "float32"}, {"name": "dense_final_left_lane/bias", "shape": [128], "dtype": "float32"}, {"name": "dense_final_long_a/kernel", "shape": [256, 128], "dtype": "float32"}, {"name": "dense_final_long_a/bias", "shape": [128], "dtype": "float32"}, {"name": "dense_final_long_v/kernel", "shape": [256, 128], "dtype": "float32"}, {"name": "dense_final_long_v/bias", "shape": [128], "dtype": "float32"}, {"name": "dense_final_long_x/kernel", "shape": [256, 128], "dtype": "float32"}, {"name": "dense_final_long_x/bias", "shape": [128], "dtype": "float32"}, {"name": "dense_final_path/kernel", "shape": [256, 128], "dtype": "float32"}, {"name": "dense_final_path/bias", "shape": [128], "dtype": "float32"}, {"name": "dense_final_right_lane/kernel", "shape": [256, 128], "dtype": "float32"}, {"name": "dense_final_right_lane/bias", "shape": [128], "dtype": "float32"}, {"name": "desire_final_dense/kernel", "shape": [256, 32], "dtype": "float32"}, {"name": "desire_final_dense/bias", "shape": [32], "dtype": "float32"}, {"name": "stem_conv/kernel", "shape": [3, 3, 12, 32], "dtype": "float32"}, {"name": "stem_bn/gamma", "shape": [32], "dtype": "float32"}, {"name": "stem_bn/beta", "shape": [32], "dtype": "float32"}, {"name": "block1a_dwconv/depthwise_kernel", "shape": [3, 3, 32, 1], "dtype": "float32"}, {"name": "block1a_bn/gamma", "shape": [32], "dtype": "float32"}, {"name": "block1a_bn/beta", "shape": [32], "dtype": "float32"}, {"name": "block1a_project_conv/kernel", "shape": [1, 1, 32, 16], "dtype": "float32"}, {"name": "block1a_project_bn/gamma", "shape": [16], "dtype": "float32"}, {"name": "block1a_project_bn/beta", "shape": [16], "dtype": "float32"}, {"name": "block1b_dwconv/depthwise_kernel", "shape": [3, 3, 16, 1], "dtype": "float32"}, {"name": "block1b_bn/gamma", "shape": [16], "dtype": "float32"}, {"name": "block1b_bn/beta", "shape": [16], "dtype": "float32"}, {"name": "block1b_project_conv/kernel", "shape": [1, 1, 16, 16], "dtype": "float32"}, {"name": "block1b_project_bn/gamma", "shape": [16], "dtype": "float32"}, {"name": "block1b_project_bn/beta", "shape": [16], "dtype": "float32"}, {"name": "block2a_expand_conv/kernel", "shape": [1, 1, 16, 96], "dtype": "float32"}, {"name": "block2a_expand_bn/gamma", "shape": [96], "dtype": "float32"}, {"name": "block2a_expand_bn/beta", "shape": [96], "dtype": "float32"}, {"name": "block2a_dwconv/depthwise_kernel", "shape": [3, 3, 96, 1], "dtype": "float32"}, {"name": "block2a_bn/gamma", "shape": [96], "dtype": "float32"}, {"name": "block2a_bn/beta", "shape": [96], "dtype": "float32"}, {"name": "block2a_project_conv/kernel", "shape": [1, 1, 96, 24], "dtype": "float32"}, {"name": "block2a_project_bn/gamma", "shape": [24], "dtype": "float32"}, {"name": "block2a_project_bn/beta", "shape": [24], "dtype": "float32"}, {"name": "block2b_expand_conv/kernel", "shape": [1, 1, 24, 144], "dtype": "float32"}, {"name": "block2b_expand_bn/gamma", "shape": [144], "dtype": "float32"}, {"name": "block2b_expand_bn/beta", "shape": [144], "dtype": "float32"}, {"name": "block2b_dwconv/depthwise_kernel", "shape": [3, 3, 144, 1], "dtype": "float32"}, {"name": "block2b_bn/gamma", "shape": [144], "dtype": "float32"}, {"name": "block2b_bn/beta", "shape": [144], "dtype": "float32"}, {"name": "block2b_project_conv/kernel", "shape": [1, 1, 144, 24], "dtype": "float32"}, {"name": "block2b_project_bn/gamma", "shape": [24], "dtype": "float32"}, {"name": "block2b_project_bn/beta", "shape": [24], "dtype": "float32"}, {"name": "block2c_expand_conv/kernel", "shape": [1, 1, 24, 144], "dtype": "float32"}, {"name": "block2c_expand_bn/gamma", "shape": [144], "dtype": "float32"}, {"name": "block2c_expand_bn/beta", "shape": [144], "dtype": "float32"}, {"name": "block2c_dwconv/depthwise_kernel", "shape": [3, 3, 144, 1], "dtype": "float32"}, {"name": "block2c_bn/gamma", "shape": [144], "dtype": "float32"}, {"name": "block2c_bn/beta", "shape": [144], "dtype": "float32"}, {"name": "block2c_project_conv/kernel", "shape": [1, 1, 144, 24], "dtype": "float32"}, {"name": "block2c_project_bn/gamma", "shape": [24], "dtype": "float32"}, {"name": "block2c_project_bn/beta", "shape": [24], "dtype": "float32"}, {"name": "block3a_expand_conv/kernel", "shape": [1, 1, 24, 144], "dtype": "float32"}, {"name": "block3a_expand_bn/gamma", "shape": [144], "dtype": "float32"}, {"name": "block3a_expand_bn/beta", "shape": [144], "dtype": "float32"}, {"name": "block3a_dwconv/depthwise_kernel", "shape": [5, 5, 144, 1], "dtype": "float32"}, {"name": "block3a_bn/gamma", "shape": [144], "dtype": "float32"}, {"name": "block3a_bn/beta", "shape": [144], "dtype": "float32"}, {"name": "block3a_project_conv/kernel", "shape": [1, 1, 144, 48], "dtype": "float32"}, {"name": "block3a_project_bn/gamma", "shape": [48], "dtype": "float32"}, {"name": "block3a_project_bn/beta", "shape": [48], "dtype": "float32"}, {"name": "block3b_expand_conv/kernel", "shape": [1, 1, 48, 288], "dtype": "float32"}, {"name": "block3b_expand_bn/gamma", "shape": [288], "dtype": "float32"}, {"name": "block3b_expand_bn/beta", "shape": [288], "dtype": "float32"}, {"name": "block3b_dwconv/depthwise_kernel", "shape": [5, 5, 288, 1], "dtype": "float32"}, {"name": "block3b_bn/gamma", "shape": [288], "dtype": "float32"}, {"name": "block3b_bn/beta", "shape": [288], "dtype": "float32"}, {"name": "block3b_project_conv/kernel", "shape": [1, 1, 288, 48], "dtype": "float32"}, {"name": "block3b_project_bn/gamma", "shape": [48], "dtype": "float32"}, {"name": "block3b_project_bn/beta", "shape": [48], "dtype": "float32"}, {"name": "block3c_expand_conv/kernel", "shape": [1, 1, 48, 288], "dtype": "float32"}, {"name": "block3c_expand_bn/gamma", "shape": [288], "dtype": "float32"}, {"name": "block3c_expand_bn/beta", "shape": [288], "dtype": "float32"}, {"name": "block3c_dwconv/depthwise_kernel", "shape": [5, 5, 288, 1], "dtype": "float32"}, {"name": "block3c_bn/gamma", "shape": [288], "dtype": "float32"}, {"name": "block3c_bn/beta", "shape": [288], "dtype": "float32"}, {"name": "block3c_project_conv/kernel", "shape": [1, 1, 288, 48], "dtype": "float32"}, {"name": "block3c_project_bn/gamma", "shape": [48], "dtype": "float32"}, {"name": "block3c_project_bn/beta", "shape": [48], "dtype": "float32"}, {"name": "block4a_expand_conv/kernel", "shape": [1, 1, 48, 288], "dtype": "float32"}, {"name": "block4a_expand_bn/gamma", "shape": [288], "dtype": "float32"}, {"name": "block4a_expand_bn/beta", "shape": [288], "dtype": "float32"}, {"name": "block4a_dwconv/depthwise_kernel", "shape": [3, 3, 288, 1], "dtype": "float32"}, {"name": "block4a_bn/gamma", "shape": [288], "dtype": "float32"}, {"name": "block4a_bn/beta", "shape": [288], "dtype": "float32"}, {"name": "block4a_project_conv/kernel", "shape": [1, 1, 288, 88], "dtype": "float32"}, {"name": "block4a_project_bn/gamma", "shape": [88], "dtype": "float32"}, {"name": "block4a_project_bn/beta", "shape": [88], "dtype": "float32"}, {"name": "block4b_expand_conv/kernel", "shape": [1, 1, 88, 528], "dtype": "float32"}, {"name": "block4b_expand_bn/gamma", "shape": [528], "dtype": "float32"}, {"name": "block4b_expand_bn/beta", "shape": [528], "dtype": "float32"}, {"name": "block4b_dwconv/depthwise_kernel", "shape": [3, 3, 528, 1], "dtype": "float32"}, {"name": "block4b_bn/gamma", "shape": [528], "dtype": "float32"}, {"name": "block4b_bn/beta", "shape": [528], "dtype": "float32"}, {"name": "block4b_project_conv/kernel", "shape": [1, 1, 528, 88], "dtype": "float32"}, {"name": "block4b_project_bn/gamma", "shape": [88], "dtype": "float32"}, {"name": "block4b_project_bn/beta", "shape": [88], "dtype": "float32"}, {"name": "block4c_expand_conv/kernel", "shape": [1, 1, 88, 528], "dtype": "float32"}, {"name": "block4c_expand_bn/gamma", "shape": [528], "dtype": "float32"}, {"name": "block4c_expand_bn/beta", "shape": [528], "dtype": "float32"}, {"name": "block4c_dwconv/depthwise_kernel", "shape": [3, 3, 528, 1], "dtype": "float32"}, {"name": "block4c_bn/gamma", "shape": [528], "dtype": "float32"}, {"name": "block4c_bn/beta", "shape": [528], "dtype": "float32"}, {"name": "block4c_project_conv/kernel", "shape": [1, 1, 528, 88], "dtype": "float32"}, {"name": "block4c_project_bn/gamma", "shape": [88], "dtype": "float32"}, {"name": "block4c_project_bn/beta", "shape": [88], "dtype": "float32"}, {"name": "block4d_expand_conv/kernel", "shape": [1, 1, 88, 528], "dtype": "float32"}, {"name": "block4d_expand_bn/gamma", "shape": [528], "dtype": "float32"}, {"name": "block4d_expand_bn/beta", "shape": [528], "dtype": "float32"}, {"name": "block4d_dwconv/depthwise_kernel", "shape": [3, 3, 528, 1], "dtype": "float32"}, {"name": "block4d_bn/gamma", "shape": [528], "dtype": "float32"}, {"name": "block4d_bn/beta", "shape": [528], "dtype": "float32"}, {"name": "block4d_project_conv/kernel", "shape": [1, 1, 528, 88], "dtype": "float32"}, {"name": "block4d_project_bn/gamma", "shape": [88], "dtype": "float32"}, {"name": "block4d_project_bn/beta", "shape": [88], "dtype": "float32"}, {"name": "block5a_expand_conv/kernel", "shape": [1, 1, 88, 528], "dtype": "float32"}, {"name": "block5a_expand_bn/gamma", "shape": [528], "dtype": "float32"}, {"name": "block5a_expand_bn/beta", "shape": [528], "dtype": "float32"}, {"name": "block5a_dwconv/depthwise_kernel", "shape": [5, 5, 528, 1], "dtype": "float32"}, {"name": "block5a_bn/gamma", "shape": [528], "dtype": "float32"}, {"name": "block5a_bn/beta", "shape": [528], "dtype": "float32"}, {"name": "block5a_project_conv/kernel", "shape": [1, 1, 528, 120], "dtype": "float32"}, {"name": "block5a_project_bn/gamma", "shape": [120], "dtype": "float32"}, {"name": "block5a_project_bn/beta", "shape": [120], "dtype": "float32"}, {"name": "block5b_expand_conv/kernel", "shape": [1, 1, 120, 720], "dtype": "float32"}, {"name": "block5b_expand_bn/gamma", "shape": [720], "dtype": "float32"}, {"name": "block5b_expand_bn/beta", "shape": [720], "dtype": "float32"}, {"name": "block5b_dwconv/depthwise_kernel", "shape": [5, 5, 720, 1], "dtype": "float32"}, {"name": "block5b_bn/gamma", "shape": [720], "dtype": "float32"}, {"name": "block5b_bn/beta", "shape": [720], "dtype": "float32"}, {"name": "block5b_project_conv/kernel", "shape": [1, 1, 720, 120], "dtype": "float32"}, {"name": "block5b_project_bn/gamma", "shape": [120], "dtype": "float32"}, {"name": "block5b_project_bn/beta", "shape": [120], "dtype": "float32"}, {"name": "block5c_expand_conv/kernel", "shape": [1, 1, 120, 720], "dtype": "float32"}, {"name": "block5c_expand_bn/gamma", "shape": [720], "dtype": "float32"}, {"name": "block5c_expand_bn/beta", "shape": [720], "dtype": "float32"}, {"name": "block5c_dwconv/depthwise_kernel", "shape": [5, 5, 720, 1], "dtype": "float32"}, {"name": "block5c_bn/gamma", "shape": [720], "dtype": "float32"}, {"name": "block5c_bn/beta", "shape": [720], "dtype": "float32"}, {"name": "block5c_project_conv/kernel", "shape": [1, 1, 720, 120], "dtype": "float32"}, {"name": "block5c_project_bn/gamma", "shape": [120], "dtype": "float32"}, {"name": "block5c_project_bn/beta", "shape": [120], "dtype": "float32"}, {"name": "block5d_expand_conv/kernel", "shape": [1, 1, 120, 720], "dtype": "float32"}, {"name": "block5d_expand_bn/gamma", "shape": [720], "dtype": "float32"}, {"name": "block5d_expand_bn/beta", "shape": [720], "dtype": "float32"}, {"name": "block5d_dwconv/depthwise_kernel", "shape": [5, 5, 720, 1], "dtype": "float32"}, {"name": "block5d_bn/gamma", "shape": [720], "dtype": "float32"}, {"name": "block5d_bn/beta", "shape": [720], "dtype": "float32"}, {"name": "block5d_project_conv/kernel", "shape": [1, 1, 720, 120], "dtype": "float32"}, {"name": "block5d_project_bn/gamma", "shape": [120], "dtype": "float32"}, {"name": "block5d_project_bn/beta", "shape": [120], "dtype": "float32"}, {"name": "block6a_expand_conv/kernel", "shape": [1, 1, 120, 720], "dtype": "float32"}, {"name": "block6a_expand_bn/gamma", "shape": [720], "dtype": "float32"}, {"name": "block6a_expand_bn/beta", "shape": [720], "dtype": "float32"}, {"name": "block6a_dwconv/depthwise_kernel", "shape": [5, 5, 720, 1], "dtype": "float32"}, {"name": "block6a_bn/gamma", "shape": [720], "dtype": "float32"}, {"name": "block6a_bn/beta", "shape": [720], "dtype": "float32"}, {"name": "block6a_project_conv/kernel", "shape": [1, 1, 720, 208], "dtype": "float32"}, {"name": "block6a_project_bn/gamma", "shape": [208], "dtype": "float32"}, {"name": "block6a_project_bn/beta", "shape": [208], "dtype": "float32"}, {"name": "block6b_expand_conv/kernel", "shape": [1, 1, 208, 1248], "dtype": "float32"}, {"name": "block6b_expand_bn/gamma", "shape": [1248], "dtype": "float32"}, {"name": "block6b_expand_bn/beta", "shape": [1248], "dtype": "float32"}, {"name": "block6b_dwconv/depthwise_kernel", "shape": [5, 5, 1248, 1], "dtype": "float32"}, {"name": "block6b_bn/gamma", "shape": [1248], "dtype": "float32"}, {"name": "block6b_bn/beta", "shape": [1248], "dtype": "float32"}, {"name": "block6b_project_conv/kernel", "shape": [1, 1, 1248, 208], "dtype": "float32"}, {"name": "block6b_project_bn/gamma", "shape": [208], "dtype": "float32"}, {"name": "block6b_project_bn/beta", "shape": [208], "dtype": "float32"}, {"name": "block6c_expand_conv/kernel", "shape": [1, 1, 208, 1248], "dtype": "float32"}, {"name": "block6c_expand_bn/gamma", "shape": [1248], "dtype": "float32"}, {"name": "block6c_expand_bn/beta", "shape": [1248], "dtype": "float32"}, {"name": "block6c_dwconv/depthwise_kernel", "shape": [5, 5, 1248, 1], "dtype": "float32"}, {"name": "block6c_bn/gamma", "shape": [1248], "dtype": "float32"}, {"name": "block6c_bn/beta", "shape": [1248], "dtype": "float32"}, {"name": "block6c_project_conv/kernel", "shape": [1, 1, 1248, 208], "dtype": "float32"}, {"name": "block6c_project_bn/gamma", "shape": [208], "dtype": "float32"}, {"name": "block6c_project_bn/beta", "shape": [208], "dtype": "float32"}, {"name": "block6d_expand_conv/kernel", "shape": [1, 1, 208, 1248], "dtype": "float32"}, {"name": "block6d_expand_bn/gamma", "shape": [1248], "dtype": "float32"}, {"name": "block6d_expand_bn/beta", "shape": [1248], "dtype": "float32"}, {"name": "block6d_dwconv/depthwise_kernel", "shape": [5, 5, 1248, 1], "dtype": "float32"}, {"name": "block6d_bn/gamma", "shape": [1248], "dtype": "float32"}, {"name": "block6d_bn/beta", "shape": [1248], "dtype": "float32"}, {"name": "block6d_project_conv/kernel", "shape": [1, 1, 1248, 208], "dtype": "float32"}, {"name": "block6d_project_bn/gamma", "shape": [208], "dtype": "float32"}, {"name": "block6d_project_bn/beta", "shape": [208], "dtype": "float32"}, {"name": "block6e_expand_conv/kernel", "shape": [1, 1, 208, 1248], "dtype": "float32"}, {"name": "block6e_expand_bn/gamma", "shape": [1248], "dtype": "float32"}, {"name": "block6e_expand_bn/beta", "shape": [1248], "dtype": "float32"}, {"name": "block6e_dwconv/depthwise_kernel", "shape": [5, 5, 1248, 1], "dtype": "float32"}, {"name": "block6e_bn/gamma", "shape": [1248], "dtype": "float32"}, {"name": "block6e_bn/beta", "shape": [1248], "dtype": "float32"}, {"name": "block6e_project_conv/kernel", "shape": [1, 1, 1248, 208], "dtype": "float32"}, {"name": "block6e_project_bn/gamma", "shape": [208], "dtype": "float32"}, {"name": "block6e_project_bn/beta", "shape": [208], "dtype": "float32"}, {"name": "block7a_expand_conv/kernel", "shape": [1, 1, 208, 1248], "dtype": "float32"}, {"name": "block7a_expand_bn/gamma", "shape": [1248], "dtype": "float32"}, {"name": "block7a_expand_bn/beta", "shape": [1248], "dtype": "float32"}, {"name": "block7a_dwconv/depthwise_kernel", "shape": [3, 3, 1248, 1], "dtype": "float32"}, {"name": "block7a_bn/gamma", "shape": [1248], "dtype": "float32"}, {"name": "block7a_bn/beta", "shape": [1248], "dtype": "float32"}, {"name": "block7a_project_conv/kernel", "shape": [1, 1, 1248, 352], "dtype": "float32"}, {"name": "block7a_project_bn/gamma", "shape": [352], "dtype": "float32"}, {"name": "block7a_project_bn/beta", "shape": [352], "dtype": "float32"}, {"name": "block7b_expand_conv/kernel", "shape": [1, 1, 352, 2112], "dtype": "float32"}, {"name": "block7b_expand_bn/gamma", "shape": [2112], "dtype": "float32"}, {"name": "block7b_expand_bn/beta", "shape": [2112], "dtype": "float32"}, {"name": "block7b_dwconv/depthwise_kernel", "shape": [3, 3, 2112, 1], "dtype": "float32"}, {"name": "block7b_bn/gamma", "shape": [2112], "dtype": "float32"}, {"name": "block7b_bn/beta", "shape": [2112], "dtype": "float32"}, {"name": "block7b_project_conv/kernel", "shape": [1, 1, 2112, 352], "dtype": "float32"}, {"name": "block7b_project_bn/gamma", "shape": [352], "dtype": "float32"}, {"name": "block7b_project_bn/beta", "shape": [352], "dtype": "float32"}, {"name": "top_conv/kernel", "shape": [1, 1, 352, 1408], "dtype": "float32"}, {"name": "top_bn/gamma", "shape": [1408], "dtype": "float32"}, {"name": "top_bn/beta", "shape": [1408], "dtype": "float32"}, {"name": "stem_bn/moving_mean", "shape": [32], "dtype": "float32"}, {"name": "stem_bn/moving_variance", "shape": [32], "dtype": "float32"}, {"name": "block1a_bn/moving_mean", "shape": [32], "dtype": "float32"}, {"name": "block1a_bn/moving_variance", "shape": [32], "dtype": "float32"}, {"name": "block1a_project_bn/moving_mean", "shape": [16], "dtype": "float32"}, {"name": "block1a_project_bn/moving_variance", "shape": [16], "dtype": "float32"}, {"name": "block1b_bn/moving_mean", "shape": [16], "dtype": "float32"}, {"name": "block1b_bn/moving_variance", "shape": [16], "dtype": "float32"}, {"name": "block1b_project_bn/moving_mean", "shape": [16], "dtype": "float32"}, {"name": "block1b_project_bn/moving_variance", "shape": [16], "dtype": "float32"}, {"name": "block2a_expand_bn/moving_mean", "shape": [96], "dtype": "float32"}, {"name": "block2a_expand_bn/moving_variance", "shape": [96], "dtype": "float32"}, {"name": "block2a_bn/moving_mean", "shape": [96], "dtype": "float32"}, {"name": "block2a_bn/moving_variance", "shape": [96], "dtype": "float32"}, {"name": "block2a_project_bn/moving_mean", "shape": [24], "dtype": "float32"}, {"name": "block2a_project_bn/moving_variance", "shape": [24], "dtype": "float32"}, {"name": "block2b_expand_bn/moving_mean", "shape": [144], "dtype": "float32"}, {"name": "block2b_expand_bn/moving_variance", "shape": [144], "dtype": "float32"}, {"name": "block2b_bn/moving_mean", "shape": [144], "dtype": "float32"}, {"name": "block2b_bn/moving_variance", "shape": [144], "dtype": "float32"}, {"name": "block2b_project_bn/moving_mean", "shape": [24], "dtype": "float32"}, {"name": "block2b_project_bn/moving_variance", "shape": [24], "dtype": "float32"}, {"name": "block2c_expand_bn/moving_mean", "shape": [144], "dtype": "float32"}, {"name": "block2c_expand_bn/moving_variance", "shape": [144], "dtype": "float32"}, {"name": "block2c_bn/moving_mean", "shape": [144], "dtype": "float32"}, {"name": "block2c_bn/moving_variance", "shape": [144], "dtype": "float32"}, {"name": "block2c_project_bn/moving_mean", "shape": [24], "dtype": "float32"}, {"name": "block2c_project_bn/moving_variance", "shape": [24], "dtype": "float32"}, {"name": "block3a_expand_bn/moving_mean", "shape": [144], "dtype": "float32"}, {"name": "block3a_expand_bn/moving_variance", "shape": [144], "dtype": "float32"}, {"name": "block3a_bn/moving_mean", "shape": [144], "dtype": "float32"}, {"name": "block3a_bn/moving_variance", "shape": [144], "dtype": "float32"}, {"name": "block3a_project_bn/moving_mean", "shape": [48], "dtype": "float32"}, {"name": "block3a_project_bn/moving_variance", "shape": [48], "dtype": "float32"}, {"name": "block3b_expand_bn/moving_mean", "shape": [288], "dtype": "float32"}, {"name": "block3b_expand_bn/moving_variance", "shape": [288], "dtype": "float32"}, {"name": "block3b_bn/moving_mean", "shape": [288], "dtype": "float32"}, {"name": "block3b_bn/moving_variance", "shape": [288], "dtype": "float32"}, {"name": "block3b_project_bn/moving_mean", "shape": [48], "dtype": "float32"}, {"name": "block3b_project_bn/moving_variance", "shape": [48], "dtype": "float32"}, {"name": "block3c_expand_bn/moving_mean", "shape": [288], "dtype": "float32"}, {"name": "block3c_expand_bn/moving_variance", "shape": [288], "dtype": "float32"}, {"name": "block3c_bn/moving_mean", "shape": [288], "dtype": "float32"}, {"name": "block3c_bn/moving_variance", "shape": [288], "dtype": "float32"}, {"name": "block3c_project_bn/moving_mean", "shape": [48], "dtype": "float32"}, {"name": "block3c_project_bn/moving_variance", "shape": [48], "dtype": "float32"}, {"name": "block4a_expand_bn/moving_mean", "shape": [288], "dtype": "float32"}, {"name": "block4a_expand_bn/moving_variance", "shape": [288], "dtype": "float32"}, {"name": "block4a_bn/moving_mean", "shape": [288], "dtype": "float32"}, {"name": "block4a_bn/moving_variance", "shape": [288], "dtype": "float32"}, {"name": "block4a_project_bn/moving_mean", "shape": [88], "dtype": "float32"}, {"name": "block4a_project_bn/moving_variance", "shape": [88], "dtype": "float32"}, {"name": "block4b_expand_bn/moving_mean", "shape": [528], "dtype": "float32"}, {"name": "block4b_expand_bn/moving_variance", "shape": [528], "dtype": "float32"}, {"name": "block4b_bn/moving_mean", "shape": [528], "dtype": "float32"}, {"name": "block4b_bn/moving_variance", "shape": [528], "dtype": "float32"}, {"name": "block4b_project_bn/moving_mean", "shape": [88], "dtype": "float32"}, {"name": "block4b_project_bn/moving_variance", "shape": [88], "dtype": "float32"}, {"name": "block4c_expand_bn/moving_mean", "shape": [528], "dtype": "float32"}, {"name": "block4c_expand_bn/moving_variance", "shape": [528], "dtype": "float32"}, {"name": "block4c_bn/moving_mean", "shape": [528], "dtype": "float32"}, {"name": "block4c_bn/moving_variance", "shape": [528], "dtype": "float32"}, {"name": "block4c_project_bn/moving_mean", "shape": [88], "dtype": "float32"}, {"name": "block4c_project_bn/moving_variance", "shape": [88], "dtype": "float32"}, {"name": "block4d_expand_bn/moving_mean", "shape": [528], "dtype": "float32"}, {"name": "block4d_expand_bn/moving_variance", "shape": [528], "dtype": "float32"}, {"name": "block4d_bn/moving_mean", "shape": [528], "dtype": "float32"}, {"name": "block4d_bn/moving_variance", "shape": [528], "dtype": "float32"}, {"name": "block4d_project_bn/moving_mean", "shape": [88], "dtype": "float32"}, {"name": "block4d_project_bn/moving_variance", "shape": [88], "dtype": "float32"}, {"name": "block5a_expand_bn/moving_mean", "shape": [528], "dtype": "float32"}, {"name": "block5a_expand_bn/moving_variance", "shape": [528], "dtype": "float32"}, {"name": "block5a_bn/moving_mean", "shape": [528], "dtype": "float32"}, {"name": "block5a_bn/moving_variance", "shape": [528], "dtype": "float32"}, {"name": "block5a_project_bn/moving_mean", "shape": [120], "dtype": "float32"}, {"name": "block5a_project_bn/moving_variance", "shape": [120], "dtype": "float32"}, {"name": "block5b_expand_bn/moving_mean", "shape": [720], "dtype": "float32"}, {"name": "block5b_expand_bn/moving_variance", "shape": [720], "dtype": "float32"}, {"name": "block5b_bn/moving_mean", "shape": [720], "dtype": "float32"}, {"name": "block5b_bn/moving_variance", "shape": [720], "dtype": "float32"}, {"name": "block5b_project_bn/moving_mean", "shape": [120], "dtype": "float32"}, {"name": "block5b_project_bn/moving_variance", "shape": [120], "dtype": "float32"}, {"name": "block5c_expand_bn/moving_mean", "shape": [720], "dtype": "float32"}, {"name": "block5c_expand_bn/moving_variance", "shape": [720], "dtype": "float32"}, {"name": "block5c_bn/moving_mean", "shape": [720], "dtype": "float32"}, {"name": "block5c_bn/moving_variance", "shape": [720], "dtype": "float32"}, {"name": "block5c_project_bn/moving_mean", "shape": [120], "dtype": "float32"}, {"name": "block5c_project_bn/moving_variance", "shape": [120], "dtype": "float32"}, {"name": "block5d_expand_bn/moving_mean", "shape": [720], "dtype": "float32"}, {"name": "block5d_expand_bn/moving_variance", "shape": [720], "dtype": "float32"}, {"name": "block5d_bn/moving_mean", "shape": [720], "dtype": "float32"}, {"name": "block5d_bn/moving_variance", "shape": [720], "dtype": "float32"}, {"name": "block5d_project_bn/moving_mean", "shape": [120], "dtype": "float32"}, {"name": "block5d_project_bn/moving_variance", "shape": [120], "dtype": "float32"}, {"name": "block6a_expand_bn/moving_mean", "shape": [720], "dtype": "float32"}, {"name": "block6a_expand_bn/moving_variance", "shape": [720], "dtype": "float32"}, {"name": "block6a_bn/moving_mean", "shape": [720], "dtype": "float32"}, {"name": "block6a_bn/moving_variance", "shape": [720], "dtype": "float32"}, {"name": "block6a_project_bn/moving_mean", "shape": [208], "dtype": "float32"}, {"name": "block6a_project_bn/moving_variance", "shape": [208], "dtype": "float32"}, {"name": "block6b_expand_bn/moving_mean", "shape": [1248], "dtype": "float32"}, {"name": "block6b_expand_bn/moving_variance", "shape": [1248], "dtype": "float32"}, {"name": "block6b_bn/moving_mean", "shape": [1248], "dtype": "float32"}, {"name": "block6b_bn/moving_variance", "shape": [1248], "dtype": "float32"}, {"name": "block6b_project_bn/moving_mean", "shape": [208], "dtype": "float32"}, {"name": "block6b_project_bn/moving_variance", "shape": [208], "dtype": "float32"}, {"name": "block6c_expand_bn/moving_mean", "shape": [1248], "dtype": "float32"}, {"name": "block6c_expand_bn/moving_variance", "shape": [1248], "dtype": "float32"}, {"name": "block6c_bn/moving_mean", "shape": [1248], "dtype": "float32"}, {"name": "block6c_bn/moving_variance", "shape": [1248], "dtype": "float32"}, {"name": "block6c_project_bn/moving_mean", "shape": [208], "dtype": "float32"}, {"name": "block6c_project_bn/moving_variance", "shape": [208], "dtype": "float32"}, {"name": "block6d_expand_bn/moving_mean", "shape": [1248], "dtype": "float32"}, {"name": "block6d_expand_bn/moving_variance", "shape": [1248], "dtype": "float32"}, {"name": "block6d_bn/moving_mean", "shape": [1248], "dtype": "float32"}, {"name": "block6d_bn/moving_variance", "shape": [1248], "dtype": "float32"}, {"name": "block6d_project_bn/moving_mean", "shape": [208], "dtype": "float32"}, {"name": "block6d_project_bn/moving_variance", "shape": [208], "dtype": "float32"}, {"name": "block6e_expand_bn/moving_mean", "shape": [1248], "dtype": "float32"}, {"name": "block6e_expand_bn/moving_variance", "shape": [1248], "dtype": "float32"}, {"name": "block6e_bn/moving_mean", "shape": [1248], "dtype": "float32"}, {"name": "block6e_bn/moving_variance", "shape": [1248], "dtype": "float32"}, {"name": "block6e_project_bn/moving_mean", "shape": [208], "dtype": "float32"}, {"name": "block6e_project_bn/moving_variance", "shape": [208], "dtype": "float32"}, {"name": "block7a_expand_bn/moving_mean", "shape": [1248], "dtype": "float32"}, {"name": "block7a_expand_bn/moving_variance", "shape": [1248], "dtype": "float32"}, {"name": "block7a_bn/moving_mean", "shape": [1248], "dtype": "float32"}, {"name": "block7a_bn/moving_variance", "shape": [1248], "dtype": "float32"}, {"name": "block7a_project_bn/moving_mean", "shape": [352], "dtype": "float32"}, {"name": "block7a_project_bn/moving_variance", "shape": [352], "dtype": "float32"}, {"name": "block7b_expand_bn/moving_mean", "shape": [2112], "dtype": "float32"}, {"name": "block7b_expand_bn/moving_variance", "shape": [2112], "dtype": "float32"}, {"name": "block7b_bn/moving_mean", "shape": [2112], "dtype": "float32"}, {"name": "block7b_bn/moving_variance", "shape": [2112], "dtype": "float32"}, {"name": "block7b_project_bn/moving_mean", "shape": [352], "dtype": "float32"}, {"name": "block7b_project_bn/moving_variance", "shape": [352], "dtype": "float32"}, {"name": "top_bn/moving_mean", "shape": [1408], "dtype": "float32"}, {"name": "top_bn/moving_variance", "shape": [1408], "dtype": "float32"}, {"name": "final_desire_state/kernel", "shape": [128, 8], "dtype": "float32"}, {"name": "final_desire_state/bias", "shape": [8], "dtype": "float32"}, {"name": "lead/kernel", "shape": [128, 58], "dtype": "float32"}, {"name": "lead/bias", "shape": [58], "dtype": "float32"}, {"name": "left_lane/kernel", "shape": [128, 386], "dtype": "float32"}, {"name": "left_lane/bias", "shape": [386], "dtype": "float32"}, {"name": "long_a/kernel", "shape": [128, 200], "dtype": "float32"}, {"name": "long_a/bias", "shape": [200], "dtype": "float32"}, {"name": "long_v/kernel", "shape": [128, 200], "dtype": "float32"}, {"name": "long_v/bias", "shape": [200], "dtype": "float32"}, {"name": "long_x/kernel", "shape": [128, 200], "dtype": "float32"}, {"name": "long_x/bias", "shape": [200], "dtype": "float32"}, {"name": "meta/kernel", "shape": [256, 4], "dtype": "float32"}, {"name": "meta/bias", "shape": [4], "dtype": "float32"}, {"name": "meta_dense_1/kernel", "shape": [1024, 256], "dtype": "float32"}, {"name": "meta_dense_1/bias", "shape": [256], "dtype": "float32"}, {"name": "one_minus/kernel", "shape": [512, 512], "dtype": "float32"}, {"name": "one_minus/bias", "shape": [512], "dtype": "float32"}, {"name": "path/kernel", "shape": [128, 385], "dtype": "float32"}, {"name": "path/bias", "shape": [385], "dtype": "float32"}, {"name": "pre_gru_dense/kernel", "shape": [1034, 1024], "dtype": "float32"}, {"name": "pre_gru_dense/bias", "shape": [1024], "dtype": "float32"}, {"name": "right_lane/kernel", "shape": [128, 386], "dtype": "float32"}, {"name": "right_lane/bias", "shape": [386], "dtype": "float32"}, {"name": "rnn_h/kernel", "shape": [1024, 512], "dtype": "float32"}, {"name": "rnn_h/bias", "shape": [512], "dtype": "float32"}, {"name": "rnn_r/kernel", "shape": [1024, 512], "dtype": "float32"}, {"name": "rnn_r/bias", "shape": [512], "dtype": "float32"}, {"name": "rnn_rh/kernel", "shape": [512, 512], "dtype": "float32"}, {"name": "rnn_rh/bias", "shape": [512], "dtype": "float32"}, {"name": "rnn_rr/kernel", "shape": [512, 512], "dtype": "float32"}, {"name": "rnn_rr/bias", "shape": [512], "dtype": "float32"}, {"name": "rnn_rz/kernel", "shape": [512, 512], "dtype": "float32"}, {"name": "rnn_rz/bias", "shape": [512], "dtype": "float32"}, {"name": "rnn_z/kernel", "shape": [1024, 512], "dtype": "float32"}, {"name": "rnn_z/bias", "shape": [512], "dtype": "float32"}, {"name": "snpe_desire_pleaser/kernel", "shape": [8, 8], "dtype": "float32"}, {"name": "snpe_desire_pleaser/bias", "shape": [8], "dtype": "float32"}, {"name": "snpe_pleaser/kernel", "shape": [512, 512], "dtype": "float32"}, {"name": "snpe_pleaser/bias", "shape": [512], "dtype": "float32"}, {"name": "snpe_traffic_pleaser/kernel", "shape": [2, 2], "dtype": "float32"}, {"name": "snpe_traffic_pleaser/bias", "shape": [2], "dtype": "float32"}]}]}